agent_code/AC_geheimagent/AC_geheimagent.pth (torch_old, 31454 bytes, 7 tensors)

conv.0.weight f4 [8, 1, 5, 5]
-0.14145772 0.041105133 -0.17620592 -0.17332289 0.06433225 -0.04234954 -0.17431092 -0.17151813
0.18644811 0.17159386 0.11261937 -0.1807719 0.17682032 -0.102973275 -0.122150846 -0.19358614
-0.09817619 -0.17186768 0.18711378 0.07099354 -0.02901903 0.19106564 -0.19378173 -0.14651012
-0.025040256 0.13028306 -0.005780641 -0.16240697 -0.18166278 0.13900527 0.11384939 -0.16831364
-0.051659584 0.0715813 -0.047466554 0.13237482 0.07306308 0.0116542615 -0.08623199 -0.11047442
0.1803513 0.10312021 -0.19301432 0.084312126 0.17985827 0.14735487 0.12935248 -0.03738398
0.09492023 0.03754752 -0.018280078 -0.16377808 -0.08033416 -0.11419333 0.19539866 0.14151886
-0.072727956 -0.17118369 0.15226388 -0.010090009 -0.11922535 -0.13000232 0.17262259 0.11695178
-0.08242408 0.052304983 -0.15525545 0.17952724 0.03528815 -0.069650024 0.08060002 0.047395345
0.15590441 0.04803611 -0.018148351 0.19649658 -0.019049542 -0.12052444 0.074214675 0.02877203
0.122293994 -0.1636003 -0.004384927 0.008687719 -0.1735711 0.13846701 0.19327326 0.16386315
0.08373517 -0.046672482 0.041556574 -0.038478103 -0.18994959 -0.10024453 0.12714647 0.050579038
-0.13750137 -0.04818051 -0.050542127 -0.052636955 -0.0083227325 -0.14763296 -0.10472296 -0.07628379
0.061447367 -0.17360978 0.08172715 -0.018997017 0.18029304 -0.022728365 -0.11334654 -0.12769267
-0.18085364 -0.1970565 -0.13287479 0.13132896 0.07486944 0.117971204 0.113553464 0.14680932
-0.19935887 0.06519377 0.13673829 0.08138191 -0.1644671 0.17388666 0.124444164 -0.17393674
0.14551549 0.15744042 0.095836475 0.08824638 -0.06964624 0.17433846 -0.0457916 -0.16311668
-0.04359615 -0.12867032 -0.047327824 -0.04001704 -0.14719117 -0.06297643 -0.05085682 -0.04105673
-0.13740873 -0.11434142 -0.19663988 -0.027337616 0.17376693 0.024934674 0.19071318 -0.03300698
-0.09532602 -0.066719085 0.16868548 0.04392764 -0.031118073 -0.024396447 0.14207737 0.12509438
-0.09841509 0.12995227 -0.1311279 -0.12240175 0.06013263 -0.11790263 -0.01882861 -0.031344663
0.15568651 0.08847397 0.01941242 -0.16763662 -0.018585466 -0.19810691 0.0673413 -0.10916542
0.04799264 0.06876691 -0.03821681 0.0496038 -0.05530337 0.002164464 -0.025506347 -0.14988746
-0.081803635 -0.048438568 0.06828078 -0.16232888 0.0137993395 -0.11532488 0.12826301 0.14715809
-0.16035023 -0.015165865 -0.03125946 -0.05269951 -0.16462477 0.15915656 0.13814302 0.067052916
00000000: 4bda 10be db5d 283d 536f 34be 8e7b 31be
00000010: a0c0 833d b676 2dbd 907e 32be 73a2 2fbe
00000020: 41ec 3e3e 4db6 2f3e fca4 e63d 451c 39be
00000030: 6310 353e a7e3 d2bd 392a fabd 723b 46be
00000040: 9910 c9bd 15fe 2fbe c19a 3f3e 1065 913d
00000050: 51b9 edbc b6a6 433e b86e 46be c006 16be
00000060: 3921 cdbc ec68 053e 886b bdbb 034e 26be
00000070: cf05 3abe 6657 0e3e de29 e93d 695a 2cbe
00000080: 0099 53bd 3799 923d 4a6c 42bd 448d 073e
00000090: 19a2 953d 84f1 3e3c 669a b0bd 6a40 e2bd
000000a0: 03ae 383e b030 d33d 8ca5 45be d6ab ac3d
000000b0: c42c 383e 32e4 163e fa74 043e f21f 19bd
000000c0: 8a65 c23d 6ecb 193d 1ac0 95bc 71b5 27be
000000d0: 3c86 a4bd 31de e9bd 9616 483e 52ea 103e
000000e0: 65f2 94bd c74a 2fbe 10eb 1b3e 9150 25bc
000000f0: 6c2c f4bd 541f 05be fac3 303e 6a84 ef3d
00000100: f5cd a8bd c03d 563d 49fb 1ebe fdd5 373e
00000110: 4f8a 103d aca4 8ebd a011 a53d 9f21 423d
00000120: 68a5 1f3e 83c1 443d daab 94bc 6636 493e
00000130: c90d 9cbc 85d5 f6bd ddfd 973d 52b3 eb3c
00000140: 4675 fa3d d686 27be 6faf 8fbb ef56 0e3c
00000150: 9fbc 31be 4cca 0d3e 6de9 453e becb 273e
00000160: 587d ab3d a52b 3fbd 3a37 2a3d 379b 1dbd
00000170: 2582 42be 014d cdbd af32 023e f72b 4f3d
00000180: 29cd 0cbe ed58 45bd 4305 4fbd d999 57bd
00000190: 125c 08bc 182d 17be fe78 d6bd ad3a 9cbd
000001a0: 3cb0 7b3d c3c6 31be 9060 a73d a29f 9bbc
000001b0: bd9e 383e d630 babc 3b22 e8bd dec1 02be
000001c0: b231 39be 2ec9 49be 5410 08be 197b 063e
000001d0: 2655 993d e39a f13d b88e e83d 2f55 163e
000001e0: bb24 4cbe 5084 853d 1f05 0c3e 8fab a63d
000001f0: 106a 28be 580f 323e 95dc fe3d 791c 32be
00000200: 0302 153e 1038 213e ea45 c43d 85ba b43d
00000210: b0a2 8ebd c885 323e f98f 3bbd 0f08 27be
00000220: e091 32bd 27c2 03be d2da 41bd e8e8 23bd
00000230: 48b9 16be c9f9 80bd 3e4f 50bd 1a2b 28bd
00000240: e0b4 0cbe d62b eabd f75b 49be 23f3 dfbc
00000250: f5ef 313e cd43 cc3c 514a 433e 5432 07bd
00000260: 4a3a c3bd 04a4 88bd e3bb 2c3e 78ed 333d
00000270: 54eb febc 0fdb c7bc bb7c 113e be18 003e
00000280: da8d c9bd 3512 053e 6446 06be c5ad fabd
00000290: a24d 763d ef76 f1bd 753e 9abc 4363 00bd
000002a0: 496c 1f3e d731 b53d cc06 9f3c efa8 2bbe
000002b0: 8c40 98bc 8adc 4abe 3cea 893d 1f92 dfbd
000002c0: ee93 443d aad5 8c3d 3b89 1cbd 5b2d 4b3d
000002d0: c985 62bd aed9 0d3b b0f2 d0bc 197c 19be
000002e0: aa88 a7bd 8567 46bd cbd6 8b3d 8b39 26be
000002f0: a016 623c 732f ecbd 6157 033e 9cb0 163e
00000300: da32 24be 407a 78bc eb09 00bd 71db 57bd
00000310: 6593 28be f0f9 223e 5d75 0d3e 0a53 893d

conv.0.bias f4 [8]
0.05147936 -0.115135975 0.08174205 -0.009502357 0.1674694 0.04079309 0.13491015 -0.10123151
00000000: 05dc 523d 69cc ebbd 6068 a73d c6af 1bbc
00000010: 197d 2b3e a816 273d e325 0a3e 7752 cfbd

conv.2.weight f4 [32, 8, 5, 5]
-0.008249337 0.004832954 -0.009609037 0.06287372 -0.043226786 -0.04097674 0.065445736 -0.022247562
-0.034924954 0.04553218 0.06538575 0.028141236 -0.025641028 0.069249496 -0.038708463 0.06928672
-0.06088769 -0.055028345 -0.039191086 -0.06646861 0.04854407 -0.03049456 0.022704888 0.042394694
-0.059690233 0.012572278 -0.07096819 0.052706208 -0.0067274463 0.037747037 -0.0575045 -0.06895967
-0.015170705 -0.057718493 -0.06210495 -0.0065285657 0.021025266 -0.03639617 -0.06157662 -0.06596992
0.0061292103 0.028141728 0.027404115 -0.040696584 0.0070975614 0.02882957 -0.06432992 0.05121306
-0.03365093 -0.042332288 -0.01505726 0.03099138 0.06357177 -0.07167759 0.010389137 0.05519098
0.059958275 0.033323422 -0.016965415 0.040718257 0.06844012 0.011108804 0.039339557 -0.038019445
-0.030883929 -0.04261693 -0.0048205396 -0.05120769 0.062774934 0.06677134 0.0054543046 -0.031617314
-0.049917355 -0.032367527 -0.019989839 0.0011646076 -0.011878535 0.051414143 0.011750691 0.058946297
0.023828324 -0.0654225 -0.006972305 -0.058881618 -0.042152394 0.029857177 0.0044999407 0.04995532
-0.022002367 -0.034443073 -0.0022441028 -0.06284026 -0.0007550195 -0.024251172 0.03665766 -0.06946099
0.060772605 -0.04028305 0.0021950523 0.035946585 0.042796947 0.021366348 0.033861905 -0.028583508
-0.030453544 -0.04781207 -0.03735213 -0.052144032 0.032216508 0.04062523 -0.060464267 -0.017504701
0.041533776 0.037243485 -0.058198404 0.054301728 0.02861877 -0.00829078 -0.00840246 -0.055067968
-0.0069346107 -0.025860133 0.0004030091 0.0018647094 0.06214199 0.035664253 -0.02557423 0.057465255
-0.03107967 0.004376584 0.061340313 0.069209054 -0.028482579 0.01412558 -0.028873976 -0.031051576
0.06524333 0.051711522 0.0383889 -0.029056285 0.06037182 0.05612776 0.03189148 0.05250403
0.0036175232 0.037122887 0.01841892 -0.022270478 0.010436352 0.022488099 -0.002722698 -0.06991772
0.004196301 0.024043802 -0.055428244 -0.021596145 -0.06368963 -0.011084229 0.054619398 0.024497107
0.023056611 0.060482226 0.066937685 0.0290131 0.06110281 0.01648797 -0.044811245 -0.02142177
-0.048949305 0.029317435 0.0632673 -0.06429201 -0.051715847 0.0593667 -0.031588055 -0.008728611
-0.019897202 0.021558898 0.016700719 0.050587762 -0.05437932 0.050617334 -0.034088384 -0.0040480504
0.005019043 0.069561005 0.037063636 -0.011355482 -0.023571707 0.037827652 -0.047725994 0.062031448
-0.050207138 -0.0060871397 -0.027094396 0.040792 -0.023863733 0.04187417 -0.068184055 -0.050692692
-0.046694104 -0.04412474 -0.065693244 0.041646473 -0.044019 -0.058946967 -0.03012363 0.017870544
0.03260383 -0.06228057 0.05143354 -0.020842487 -0.023495723 -0.034133244 -0.047687218 -0.05181614
-0.0485522 0.027139718 -0.034819994 0.0171826 0.062307276 -0.036669314 -0.055851124 -0.060510837
-0.052493233 0.04062085 0.0068990956 -0.015762964 -0.06426401 0.015314586 -0.00824617 0.054665606
-0.057785124 -0.042231612 0.042665184 -0.042167105 0.047336966 0.030087123 0.008029555 -0.045816194
-0.022071464 0.04965146 0.015310721 -0.022872701 -0.0070030987 -0.0036493894 -0.03267217 -0.044128276
-0.03682368 0.047470555 -0.004124433 0.013702478 0.033907637 0.02411091 0.013018566 0.0019281048
00000000: 3a28 07bc c25d 9e3b 396f 1dbc f0c3 803d
00000010: 920e 31bd 3ad7 27bd 6a08 863d 8540 b6bc
00000020: 780d 0fbd f47f 3a3d f7e8 853d 7388 e63c
00000030: 220d d2bc aed2 8d3d c48c 1ebd 32e6 8d3d
00000040: 5f65 79bd 6765 61bd d586 20bd b220 88bd
00000050: 26d6 463d bacf f9bc 9aff b93c 0fa6 2d3d
00000060: bf7d 74bd f5fb 4d3c c557 91bd 77e2 573d
00000070: e971 dcbb a39c 1a3d d789 6bbd ba3a 8dbd
00000080: 8c8e 78bc 3a6a 6cbd c361 7ebd 94ed d5bb
00000090: 2e3d ac3c 2614 15bd c437 7cbd 3d1b 87bd
000000a0: 8bd7 c83b 7b89 e63c 987e e03c 76b1 26bd
000000b0: a992 e83b fe2b ec3c 68bf 83bd c9c4 513d
000000c0: 8fd5 09bd 9f64 2dbd bab2 76bc a2e1 fd3c
000000d0: eb31 823d b3cb 92bd 3337 2a3c f00f 623d
000000e0: cf96 753d 247e 083d 0efb 8abc 30c8 263d
000000f0: 552a 8c3d b301 363c 8422 213d 47ba 1bbd
00000100: 4b00 fdbc 178f 2ebd 9ef5 9dbb 28bf 51bd
00000110: 2590 803d 6abf 883d 06ba b23b 2881 01bd
00000120: 2476 4cbd d093 04bd bbc1 a3bc bfa5 983a
00000130: 309e 42bc a397 523d f885 403c ac71 713d
00000140: 9e33 c33c 3bfc 85bd ef77 e4bb da2d 71bd
00000150: fda7 2cbd 0a97 f43c 3d74 933b f39d 4c3d
00000160: 4f3e b4bc 2e14 0dbd cc11 13bb 65b2 80bd
00000170: 80ec 45ba 65aa c6bc 5826 163d 9041 8ebd
00000180: b2ec 783d d7ff 24bd deda 0f3b ba3c 133d
00000190: da4b 2f3d 7b08 af3c c8b2 0a3d f627 eabc
000001a0: b679 f9bc 97d6 43bd 8cfe 18bd fb94 55bd
000001b0: 75f5 033d a466 263d 61a9 77bd 0566 8fbc
000001c0: 521f 2a3d a08c 183d 7361 6ebd 7d6b 5e3d
000001d0: e971 ea3c 0dd6 07bc 79aa 09bc f38e 61bd
000001e0: bb3b e3bb a1d8 d3bc f74a d339 4469 f43a
000001f0: 9988 7e3d ae14 123d 0c81 d1bc b060 6b3d
00000200: cb9a febc 7369 8f3b fb3f 7b3d 7abd 8d3d
00000210: 4c54 e9bc fa6e 673c 1e89 ecbc e05f febc
00000220: 4c9e 853d 76cf 533d ae3d 1d3d 7207 eebc
00000230: 7148 773d 39e6 653d a4a0 023d 770e 573d
00000240: f813 6d3b 2b0e 183d 46e3 963c 9470 b6bc
00000250: 3cfd 2a3c f638 b83c 4b6f 32bb 0631 8fbd
00000260: 2081 893b 82f7 c43c ba08 63bd 66ea b0bc
00000270: b56f 82bd a09a 35bc 97b8 5f3d 28ae c83c
00000280: 38e1 bc3c 36bc 773d a016 893d e1ac ed3c
00000290: f146 7a3d c711 873c ff8b 37bd b57c afbc
000002a0: 117f 48bd 1e2b f03c 4992 813d 88ab 83bd
000002b0: ffd3 53bd 7f2a 733d 7a62 01bd 7302 0fbc
000002c0: 75ff a2bc 499c b03c f2cf 883c 1d35 4f3d
000002d0: dabc 5ebd 1f54 4f3d 43a0 0bbd 82a5 84bb
000002e0: c976 a43b 0076 8e3d 0ad0 173d 580c 3abc
000002f0: 7419 c1bc 2bf1 1a3d 557c 43bd b014 7e3d
00000300: 00a6 4dbd a176 c7bb 11f5 ddbc 8315 273d
00000310: e07d c3bc 4084 2b3d 15a4 8bbd 24a3 4fbd
00000320: 5142 3fbd 25bc 34bd 2e8a 86bd 7e95 2a3d
00000330: 444d 34bd 6072 71bd d5c5 f6bc 3f65 923c
00000340: 988b 053d e919 7fbd faab 523d ddbd aabc
00000350: 1a7a c0bc 4dcf 0bbd ac53 43bd 293d 54bd
00000360: acde 46bd 1d54 de3c 699f 0ebd 86c2 8c3c
00000370: ea35 7f3d 9032 16bd 26c4 64bd 36da 77bd
00000380: 2503 57bd 0c62 263d cf11 e23b 5521 81bc
00000390: d99c 83bd 08ea 7a3c f21a 07bc 0be9 5f3d
000003a0: 18b0 6cbd 0efb 2cbd b0c1 2e3d 6ab7 2cbd
000003b0: 68e4 413d 4579 f63c 658e 033c c3a9 3bbd
000003c0: 37cf b4bc 545f 4b3d d1d9 7a3c 885f bbbc
000003d0: 407a e5bb 982a 6fbb 41d3 05bd dabf 34bd
000003e0: 6dd4 16bd 7c70 423d 4026 87bb 5c80 603c
000003f0: bce2 0a3d 3e84 c53c d34b 553c 76b8 fc3a

conv.2.bias f4 [32]
-0.017989924 0.065450184 0.018862404 0.020901723 0.046053965 -0.057835665 0.01578407 -0.063848145
-0.014218927 -0.05555498 0.027314154 0.019172382 0.042346284 -0.009762327 0.03399147 0.022343349
0.006335132 -0.052341525 0.030395754 0.028585538 0.03509799 0.059060287 0.0040247045 -0.060516346
0.009860877 0.0007893353 0.023634104 0.03548274 0.07081453 -0.0119564235 -0.030845998 0.048632067
00000000: 9b5f 93bc bf0a 863d 5485 9a3c 173a ab3c
00000010: 15a3 3c3d 17e5 6cbd 984d 813c d1c2 82bd
00000020: 81f6 68bc 9e8d 63bd efc1 df3c 660f 9d3c
00000030: 4c73 2d3d 2bf2 1fbc a43a 0b3d 6609 b73c
00000040: f096 cf3b 1164 56bd 8400 f93c 382c ea3c
00000050: e9c2 0f3d 33e9 713d abe1 833b fddf 77bd
00000060: 848f 213c 65eb 4e3a 4f9c c13c 5956 113d
00000070: 3507 913d e0e4 43bc bfb0 fcbc 6b32 473d

actor.weight f4 [6, 128]
-0.004624946 0.035300765 0.018024495 -0.07956965 -0.014665841 0.05063104 -0.036237 0.06262866
-0.03762325 -0.021666408 0.029989347 -0.023010008 0.0529794 0.01909174 -0.04999512 -0.010702125
-0.041749433 -0.023026934 0.042996913 0.052374534 0.054239985 0.0630028 0.0240708 -0.0465703
-0.044524763 -0.08112085 0.02240581 -0.0053856024 -0.0076725236 0.08572968 0.073297605 0.006184538
-0.058843717 -0.06680466 0.056848027 0.066857755 0.05248712 -0.030732125 0.053215757 0.017684903
0.044412713 -0.059999116 -0.046458375 0.0024435287 0.022542795 -0.023570834 -0.0036420976 0.08004177
0.06399075 -0.04162911 0.07302517 0.01799822 -0.049403913 -0.019929035 0.08382574 -0.024313226
-0.04043638 0.04729984 0.07346472 -0.0077551357 0.043675322 0.010907838 0.053498633 -0.043225877
-0.07190097 -0.06707695 0.016417831 -0.07576094 -0.00554085 0.078599066 0.035190552 -0.07005793
0.040639497 -0.05311628 -0.07338163 -0.060022917 -0.07419109 0.026448343 0.06695432 0.0863155
0.009660006 -0.012393557 0.05933145 0.0756972 -0.081837386 -0.038359743 0.06821096 -0.0057418444
0.07910694 0.06974196 -0.027759982 0.07163005 0.06497285 -0.016778598 0.048068624 0.026712263
-0.011049421 0.022567652 -0.07822907 -0.036170788 -0.024151057 -0.086938515 -0.012580248 0.04413521
0.05931076 -0.03920968 -0.08594316 0.03743062 -0.04559003 0.035401396 0.083873644 0.01912121
0.009170175 -0.0064186235 -0.06362397 -0.024273435 0.024738086 0.023552187 -0.030434186 -0.009929369
0.05713114 -0.060120735 0.04579566 -0.025082909 0.0797462 0.08382925 0.03811472 0.088136
0.018448627 0.056331694 0.0045851683 -0.00074228534 -0.011106128 0.026295165 -0.006182099 -0.06907504
-0.03790644 0.047592007 -0.021139808 0.057997413 0.01491048 -0.04702354 0.05767249 0.014006025
0.011815218 0.048447285 0.021644995 -0.08664833 0.049774773 0.07443285 -0.054747242 -0.066150665
-0.034078572 0.0076634036 0.0015092716 0.08461274 -0.073081754 0.061715886 -0.057437517 0.026387982
0.061413173 -0.04754291 0.005685838 0.013978894 -0.06910556 -0.07788242 0.015963845 0.058454175
0.036777318 -0.035177857 0.01239723 0.012751644 0.06712319 0.027489435 0.055977307 -0.012382364
-0.07166018 -0.02909642 0.018010722 -0.07575894 -0.074903905 0.049753632 -0.061499856 0.06676159
0.03062266 0.015599556 -0.066564105 -0.023409387 -0.07745323 0.017746547 -0.048003804 0.034271874
-0.03640746 0.014890052 -0.07496793 -0.020492442 0.0613471 -0.06239395 0.0037663693 0.06588042
-0.062036254 0.04351055 -0.053782508 0.03983181 -0.0850024 0.08555201 0.037225414 0.024206547
0.082866006 0.029155321 0.011573269 0.010080699 0.071620695 0.052661117 -0.04152399 0.004534775
0.037732713 0.03165515 0.00857802 0.084259346 0.052741814 -0.032709677 -0.06710027 -0.039579373
-0.037219714 0.057912152 0.08078943 -0.08126378 -0.01233172 0.08086781 -0.0852863 0.06872138
0.009829193 -0.060966615 0.07333741 7.497759e-05 0.0730508 0.0735337 0.003745975 0.06585805
-0.02393731 -0.034437664 -0.047132846 -0.060204472 0.015007995 0.082552366 0.048532262 0.08607229
0.059930947 0.022458294 -0.06615139 -0.024751496 -0.04897324 0.054003872 0.00046102304 0.010666015
00000000: dc8c 97bb 8997 103d 1ba8 933c 6af5 a2bd
00000010: ff48 70bc 7e62 4f3d 406d 14bd 7443 803d
00000020: d61a 1abd c07d b1bc 38ac f53c 7c7f bcbc
00000030: ed00 593d 4866 9c3c afc7 4cbd f757 2fbc
00000040: 7401 2bbd fba2 bcbc 881d 303d ae86 563d
00000050: bf2a 5e3d 9d07 813d 2030 c53c 80c0 3ebd
00000060: 995f 36bd b022 a6bd 648c b73c b579 b0bb
00000070: cb69 fbbb 0b93 af3d 0e1d 963d aaa7 ca3b
00000080: 1c06 71bd e2d0 88bd 7ad9 683d b8ec 883d
00000090: bcfc 563d f0c1 fbbc c4f8 593d eedf 903c
000000a0: 1bea 353d a2c1 75bd 234b 3ebd 9c23 203b
000000b0: abab b83c 9f17 c1bc 42b0 6ebb f1ec a33d
000000c0: 950d 833d 4983 2abd 388e 953d 0171 933c
000000d0: c25b 4abd 3742 a3bc d4ac ab3d 882c c7bc
000000e0: 9ea0 25bd 7abd 413d ac74 963d cb1e febb
000000f0: e5e4 323d cab6 323c 6221 5b3d 9e0d 31bd
00000100: d140 93bd a45f 89bd b07e 863c 8d28 9bbd
00000110: 0590 b5bb 8cf8 a03d f823 103d 887a 8fbd
00000120: 9a75 263d 7590 59bd 1c49 96bd 97da 75bd
00000130: 80f1 97bd 32aa d83c 591f 893d 2ec6 b03d
00000140: 0045 1e3c 580e 4bbc 8905 733d 2207 9b3d
00000150: 5c9a a7bd 1b1f 1dbd 30b2 8b3d 1526 bcbb
00000160: d202 a23d dfd4 8e3d e768 e3bc c7b2 923d
00000170: 7c10 853d 4573 89bc 9be3 443d add3 da3c
00000180: a108 35bc ccdf b83c 9036 a0bd d227 14bd
00000190: 70d8 c5bc d20c b2bd 621d 4ebc 1fc7 343d
000001a0: d7ef 723d 549a 20bd f802 b0bd da50 193d
000001b0: 9cbc 3abd 0e01 113d f2c5 ab3d 15a4 9c3c
000001c0: 803e 163c 5153 d2bb 494d 82bd 15d9 c6bc
000001d0: 87a7 ca3c 84f0 c03c 1d51 f9bc cbae 22bc
000001e0: 5802 6a3d 2941 76bd 3b94 3b3d ac7a cdbc
000001f0: fa51 a33d abae ab3d 2e1e 1c3d a680 b43d
00000200: 9321 973c 10bc 663d 2e3f 963b ed95 42ba
00000210: 7af6 35bc f568 d73c 3593 cabb 3777 8dbd
00000220: c943 1bbd d6ef 423d 642d adbc b28e 6d3d
00000230: 164b 743c c19b 40bd fd39 6c3d 8779 653c
00000240: 9e94 413c a970 463d d850 b13c ae74 b1bd
00000250: a2e0 4b3d 4070 983d a53e 60bd 007a 87bd
00000260: f995 0bbd 4a1d fb3b c0d2 c53a 7249 ad3d
00000270: e3ab 95bd ccc9 7c3d 9a43 6bbd 9c2b d83c
00000280: 618c 7b3d 5bbc 42bd 4450 ba3b bb07 653c
00000290: 3787 8dbd d180 9fbd 9cc6 823c a56d 6f3d
000002a0: d0a3 163d a816 10bd c01d 4b3c 45ec 503c
000002b0: e277 893d 8631 e13c 7648 653d 66df 4abc
000002c0: 93c2 92bd 9e5b eebc 398b 933c 8127 9bbd
000002d0: 3867 99bd 77ca 4b3d 46e7 7bbd 4dba 883d
000002e0: 5fdc fa3c 4895 7f3c c352 88bd 0bc5 bfbc
000002f0: cd9f 9ebd 3561 913c a39f 44bd aa60 0c3d
00000300: fd1f 15bd 68f5 733c c988 99bd c4df a7bc
00000310: 1947 7b3d cc90 7fbd 31d5 763b 50ec 863d
00000320: ba19 7ebd 1e38 323d 0c4b 5cbd ae26 233d
00000330: bd15 aebd e435 af3d ad79 183d cf4c c63c
00000340: a7b5 a93d 24d7 ee3c cf9d 3d3c 8429 253c
00000350: dfad 923d 2fb3 573d 0f15 2abd 7398 943b
00000360: 9e8d 1a3d d5a8 013d d38a 0c3c 2a90 ac3d
00000370: cd07 583d 95fa 05bd de6b 89bd fb1d 22bd
00000380: b373 18bd 4b35 6d3d ee74 a53d a06d a6bd
00000390: fc0a 4abc 069e a53d 95aa aebd cbbd 8c3d
000003a0: a00a 213c 21b8 79bd ed31 963d 4a3d 9d38
000003b0: a89b 953d d698 963d 087f 753b 96e0 863d
000003c0: 2d18 c4bc 820e 0dbd 5f0e 41bd f798 76bd
000003d0: 18e4 753c 3711 a93d c4c9 463d ab46 b03d
000003e0: 277a 753d 75fa b73c 617a 87bd a6c3 cabc
000003f0: 2a98 48bd 2a33 5d3d 77b5 f139 82c0 2e3c

actor.bias f4 [6]
0.066491514 0.08151468 0.016963579 -0.03751336 -0.075838774 0.0066870395
00000000: b42c 883d 2bf1 a63d 34f7 8a3c 9ca7 19bd
00000010: 5c51 9bbd f41e db3b

critic.weight f4 [1, 128]
-0.06496612 0.017123207 -0.003820087 -0.0072029475 0.027257962 0.04196801 -0.05666054 0.0060810875
0.004838206 -0.03468514 -0.008324459 0.035626076 0.07302414 -0.04802402 0.0698085 0.03714945
-0.00012574921 -0.052331824 -0.0011454193 -0.062376346 -0.024575742 -0.04776197 0.045670833 0.013362276
-0.06361111 0.036563426 0.07493139 0.058408897 0.06039328 -0.059410043 0.058047146 0.037568357
0.05722523 0.007401471 -0.05451305 0.024323994 -0.037848055 0.047561537 -0.0050125867 0.065292224
0.0397582 0.027169704 0.08733455 0.073482536 0.022952536 -0.02032637 -0.06465489 -0.054345746
0.023234978 -0.028762776 -0.04778848 0.027614884 -0.05021915 -0.041269664 0.055707168 -0.08435091
0.043956798 0.042914912 0.046848457 0.06855479 0.003491329 -0.07784588 0.02597149 0.044193394
-0.07843716 0.022674687 0.06434836 -0.036597468 -0.031041661 0.008626812 -0.0632999 0.021937074
0.071424134 0.06614467 -0.056052726 -0.032114338 -0.06025424 -0.024403097 -0.052057534 -0.06764056
-0.014962964 -0.08308288 0.08649503 0.036469605 0.05505894 -0.0161617 0.08231207 -0.0070744725
-0.0006766638 -0.004376418 0.0731821 0.029372463 0.014373196 0.08487856 -0.005960668 -0.052245107
0.06749949 -0.07500262 0.0817526 0.030567806 0.0555571 0.073190324 -0.07418641 0.017642442
0.0070704063 -0.051573552 -0.05673995 0.019104263 0.072932504 0.012162094 0.03539327 -0.0024861067
0.015905108 -0.07902197 0.070048034 -0.067829505 0.056248154 -0.005305309 0.044339724 -0.020582035
-0.033218224 -0.07113793 -0.0045464337 0.02598201 -0.03593289 0.014696834 -0.055810664 -0.08912439
00000000: f50c 85bd f845 8c3c 6d5a 7abb b406 ecbb
00000010: 174c df3c a6e6 2b3d e214 68bd dc43 c73b
00000020: d089 9e3b 0112 0ebd 5063 08bc a6ec 113d
00000030: ae8d 953d d6b4 44bd c2f7 8e3d 062a 183d
00000040: 8cdb 03b9 e559 56bd e521 96ba 577e 7fbd
00000050: 1153 c9bc 0ea2 43bd 5711 3b3d 73ed 5a3c
00000060: 8b46 82bd 88c3 153d a175 993d 2b3e 6f3d
00000070: f25e 773d f257 73bd d8c2 6d3d 47e1 193d
00000080: 0165 6a3d 0a88 f23b 1349 5fbd 1d43 c73c
00000090: 9006 1bbd e3cf 423d a040 a4bb eeb7 853d
000000a0: 7fd9 223d 0093 de3c 75dc b23d 037e 963d
000000b0: f506 bc3c 7d83 a6bc c869 84bd a599 5ebd
000000c0: 4857 be3c ea9f ebbc dabd 43bd 9c38 e23c
000000d0: 98b2 4dbd 610a 29bd 332d 643d 2bc0 acbd
000000e0: 0b0c 343d 8cc7 2f3d 2be4 3f3d 7466 8c3d
000000f0: c8ce 643b a96d 9fbd 2ac2 d43c 2204 353d
00000100: a9a3 a0bd 44c0 b93c 13c9 833d 3ae7 15bd
00000110: 154b febc 7957 0d3c 61a3 81bd 61b5 b33c
00000120: d146 923d db76 873d 8b97 65bd 538a 03bd
00000130: 26cd 76bd 01e9 c7bc 483a 55bd 2287 8abd
00000140: 3827 75bc 5b27 aabd 4e24 b13d 2761 153d
00000150: 7c85 613d 8b65 84bc 3b93 a83d fad0 e7bb
00000160: 2462 31ba 0e68 8fbb 7fe0 953d 859e f03c
00000170: 8e7d 6b3c cfd4 ad3d b551 c3bb f7fe 55bd
00000180: 2c3d 8a3d f99a 99bd e86d a73d 5669 fa3c
00000190: d78f 633d cfe4 953d 0bef 97bd e286 903c
000001a0: deae e73b ca3e 53bd 2668 68bd 8b80 9c3c
000001b0: a35d 953d 8543 473c 89f8 103d f3ed 22bb
000001c0: 6e4b 823c 45d6 a1bd 5875 8f3d 32ea 8abd
000001d0: 7764 663d 28d8 adbb 929d 353d a89b a8bc
000001e0: d50f 08bd c3b0 91bd 40fa 94bb 39d8 d43c
000001f0: 5e2e 13bd fdca 703c b999 64bd d986 b6bd
