agent_code/deep_q_geheimagent/deep_geheimagent.pth (torch_old, 15996 bytes, 8 tensors)

conv.0.weight f4 [8, 1, 3, 3]
000000 5c fe 0e be 27 28 e3 3e 93 36 3b 3e a5 c0 f0 3e
       -0.13964218 0.4436657 0.18282537 0.47021976
000010 f9 50 12 3e 9b 8c 7f bf d1 85 44 be f0 3d 13 3f
       0.14288701 -0.9982392 -0.19191672 0.57516384
000020 15 c3 ff bc 63 75 67 be e0 2d 2c bf be 4c 02 be
       -0.031220952 -0.22603373 -0.672575 -0.12724587
000030 1f fc 91 bf af ca 93 3f fe ef eb bd 09 2e a1 be
       -1.1405066 1.1546229 -0.11520384 -0.31480435
000040 0d b0 1b bf 95 2c 21 bf 35 40 ea 3e bc a6 8c 3d
       -0.6081551 -0.6295865 0.4575211 0.068677396
000050 14 65 83 bd 2e e3 ed 3d a4 e9 38 bc d3 41 81 3d
       -0.064157635 0.11615597 -0.011286173 0.06311383
000060 79 d2 bd 3e db ec 4f be d7 c5 d8 3e 8d 3b f1 3d
       0.3707464 -0.20305197 0.4233844 0.117789365
000070 86 16 48 bd b9 c7 40 3e fc c3 a7 be d8 68 93 bd
       -0.048849605 0.18826188 -0.32766712 -0.07197732
000080 be 1a f0 be 87 e9 de 3d 75 e1 ac 3d 76 4a 82 3e
       -0.46895403 0.108843856 0.0844144 0.25447434
000090 3a fd 05 bf e4 51 80 bf 31 5f e1 be 78 be 61 bf
       -0.5233952 -1.0024991 -0.44017938 -0.8818126
0000a0 04 91 66 3f 03 1d a3 3e cb ed b1 be 10 ef 1e bf
       0.90065026 0.31858072 -0.34751734 -0.6208353
0000b0 0a b6 aa 3c 35 f0 a3 bd 1f 99 6a bf f2 b0 11 be
       0.020838756 -0.080048 -0.91639894 -0.14227656
0000c0 33 d2 f0 3e 10 2a 83 3e ea 2e 2c bf 05 8a 98 be
       0.4703537 0.2561803 -0.67259085 -0.297928
0000d0 5b 99 95 3f a8 d7 49 be d1 12 f8 be ff 40 3a be
       1.1687425 -0.19711173 -0.48451856 -0.18188857
0000e0 61 29 9a be 4e 84 bc 3e fc a2 3c 3e 43 b3 0f 3e
       -0.30109695 0.3681969 0.18421549 0.14033227
0000f0 cf 68 28 bf 9a 9c 24 3f a0 5f 9a bd 37 b1 0f 3e
       -0.65784925 0.64301455 -0.0753777 0.14032446
000100 11 65 f6 3c 55 a6 75 3e 9d f7 12 be 8d c3 5d be
       0.03007749 0.23989232 -0.1435227 -0.21656628
000110 c5 8e 85 be ad d0 9c bd e3 e6 ee be fc c3 ee bc
       -0.26085487 -0.07656989 -0.46660528 -0.029146187

conv.0.bias f4 [8]
000000 1e 81 5c be 69 5d 8a 3e e4 99 84 be be d8 b8 be
       -0.2153363 0.2702439 -0.2589866 -0.3610286
000010 dd 91 54 3e 32 e3 fd 3c 3f 9e 35 3e 84 2d 80 3c
       0.20758767 0.030992124 0.17736147 0.015646704

conv.2.weight f4 [16, 8, 3, 3]
000000 d4 2e e4 bc 9d f4 ba 3d 99 02 05 bc ae 24 9f bb
       -0.02785436 0.091286875 -0.008118295 -0.0048566675
000010 51 fa 60 3e 9d dd 4c 3e 21 de 12 be 5b 0c 29 3d
       0.21970488 0.20006414 -0.14342548 0.04127155
000020 80 a3 90 3e 89 e4 e9 3e 2f 02 a9 be 89 2f af be
       0.2824974 0.4568217 -0.33009478 -0.34215954
000030 7e 11 36 3f b5 f1 f5 3e 71 1e 1e 3f 28 88 e1 3e
       0.7112044 0.4803597 0.617652 0.4404919
000040 20 52 6f bf 08 85 13 3f 62 e6 78 3d 77 14 13 be
       -0.9348469 0.57624865 0.060766585 -0.14363275
000050 8f e4 a4 bd 4a 02 83 bd 83 a5 9e 3d 58 77 7a 3c
       -0.080514066 -0.06396921 0.077464126 0.015287243
000060 48 c4 bc bd 8d b6 90 3d 28 7f e9 bc be 46 2a 3e
       -0.09217125 0.07066069 -0.028503016 0.16628549
000070 35 a7 8d 3d 39 0a ad 3d e0 8f fe 3c 5a c2 07 bd
       0.06916658 0.084492154 0.031074464 -0.033144332
000080 10 cb a3 3b a4 3e 16 be e5 07 40 3e 6c ef 0c 3e
       0.004998572 -0.14672333 0.18753012 0.13763207
000090 7c 9c 50 be d1 91 c5 bd a5 95 d9 be 77 b3 fa 3e
       -0.20372194 -0.09646953 -0.42496982 0.48965046
0000a0 75 f2 a1 bd bd d9 b5 3e 22 45 7b 3e a6 2e 62 bf
       -0.07907573 0.35517684 0.24538091 -0.8835243
0000b0 f3 e6 0b 3f 0b 62 54 be 73 1b 66 3e 7d 62 a2 bd
       0.54649276 -0.20740525 0.22471409 -0.079289414
0000c0 4e 72 1b 3e 56 23 61 3d 5c f3 5b 3e 7d 9b 6e 3e
       0.15180323 0.05496534 0.21479553 0.23301502
0000d0 6a 8c 4a 3d eb b7 fd 3d f8 a6 1f 3d c1 61 0f 3f
       0.049450316 0.12388595 0.038977593 0.56008536
0000e0 04 93 f1 3e 68 9f 42 3e 50 ef 44 3e 20 14 3b bd
       0.47182477 0.19006121 0.19231915 -0.04567349
0000f0 3b 51 0b 3f 9b 47 90 3e 22 83 a6 3e b0 91 7b 3b
       0.5442082 0.2817963 0.3252192 0.0038386397
000100 78 9d 26 be c6 21 e2 3d 55 7a 91 3d f1 24 0e be
       -0.16271007 0.11041598 0.07103411 -0.1388128
000110 de 14 00 be a8 aa b1 bd 52 a0 a9 3d f9 5f 16 3e
       -0.1250796 -0.08675128 0.08282532 0.14685048
000120 7e 21 a9 bd d4 d0 f3 3c 2e ae 11 be ef a0 3c be
       -0.08258341 0.029762663 -0.142266 -0.18420766
000130 10 b9 18 be f3 8d 93 bd 0f 66 aa bd b1 ea 36 3e
       -0.14914346 -0.07204809 -0.083202474 0.17862965
000140 79 8f e4 bd e7 0e 05 be 00 66 54 be a8 00 66 3d
       -0.11160178 -0.12993966 -0.20742035 0.05615297
000150 c0 ed e8 bb 20 af 78 bb 8e de 15 bd 08 ee 16 3c
       -0.00710842 -0.003794618 -0.036589198 0.0092120245
000160 f0 93 a8 bd 46 ed 1d bd ec 03 cc bd c4 aa 19 bd
       -0.08231342 -0.03855636 -0.099616855 -0.03751637
000170 5b d0 a1 3d f2 1d 55 bd 12 bd ae bd 65 e6 ea bd
       0.07901069 -0.05203051 -0.08532156 -0.114697255
000180 0b 44 b5 3d be 19 69 3d 79 fa c8 3d 48 e5 29 be
       0.08850869 0.056909315 0.09813399 -0.1659137
000190 c7 71 8b bd ab 71 c5 bd c9 ff e1 bd d9 47 86 bd
       -0.06808811 -0.09640821 -0.11035115 -0.065566726
0001a0 ea 03 01 bd db b5 84 bd 88 53 05 be 3e 40 e7 bd
       -0.031497873 -0.06479999 -0.13020146 -0.1129155
0001b0 60 36 13 be 06 86 df bd dc 93 84 bd b2 d0 65 bd
       -0.14376211 -0.10914235 -0.064735144 -0.05610723
0001c0 d0 10 01 be c8 2f 02 be 6a 33 3f be 10 59 fa bc
       -0.1260407 -0.1271354 -0.18671957 -0.030560046
0001d0 a4 39 c0 bc 22 81 45 be 44 69 14 be 32 03 2e be
       -0.023464985 -0.19287542 -0.1449328 -0.16993406
0001e0 34 41 06 bd 04 ea d6 3c 15 21 d5 bd dc ad fb bc
       -0.032777026 0.026234634 -0.104067005 -0.030722551
0001f0 94 5f 27 bd f4 12 f7 3c 98 b4 d6 bc ca 5e 17 bd
       -0.040862635 0.030160405 -0.02620916 -0.036955632
000200 31 bd 9b 3d 6c 18 83 bc 36 a8 d7 bd fa 15 36 be
       0.07604445 -0.016002856 -0.105301306 -0.17781821
000210 ff 5f b7 3d 92 a0 43 3d 28 2c 31 3d ee 76 42 be
       0.08953857 0.047760554 0.043255 -0.1899068
000220 2a de 20 be e8 52 b2 bd 95 ca b1 bd c8 a3 a8 bc
       -0.15709749 -0.08707219 -0.086812176 -0.02058591
000230 73 28 5a be 82 15 d2 bd 7a ae b5 bd 5c 42 42 be
       -0.21304493 -0.102580085 -0.088711694 -0.18970627
000240 e5 e7 47 be 56 b0 dc 3f 03 46 58 3d 66 76 8b 3f
       -0.19522054 1.7241313 0.052801143 1.0895507
000250 3d ef 97 bf 36 eb 08 3e ab ef ac 3d 22 a4 8c 3f
       -1.1869885 0.13370976 0.084441505 1.0987589
000260 b2 7f 52 bf 57 4c 4f bf c1 0b 9c 3f 86 60 17 3f
       -0.822261 -0.8097586 1.2191087 0.5913166
000270 28 43 02 bf 35 89 60 bf 76 7f 98 bf 93 39 23 be
       -0.5088372 -0.8770936 -1.1913898 -0.15939932
000280 53 2f f1 3f d0 70 38 3f 8c ae 97 3c d8 4a d8 bd
       1.8842567 0.7204714 0.018515848 -0.1056115
000290 2b 57 e7 3d 14 15 9d 3c 82 2c 01 bd 0b 84 ef 3d
       0.11295923 0.01917509 -0.031536587 0.11695107
0002a0 5b d5 e6 3d d3 48 e4 3d 3e a4 89 bd 32 0d 20 3e
       0.11271163 0.111467026 -0.0672078 0.15630034
0002b0 07 3f 8a 3d f1 09 ca 3d 70 bc b2 bb c8 41 61 3c
       0.06750303 0.098651774 -0.0054545924 0.013748594
0002c0 78 b0 e3 bc be 26 fc bd 34 fa c2 bc 02 e1 43 bd
       -0.027794108 -0.12312077 -0.023800947 -0.047822006
0002d0 09 7e 1a bf c7 73 66 3f 58 12 5e 3f c0 f5 08 bf
       -0.60348564 0.9002041 0.8674674 -0.53499985
0002e0 75 03 c6 be 3c 57 50 bf d4 29 87 be f7 07 f7 3f
       -0.38674513 -0.8138311 -0.263991 1.9299306
0002f0 6a 9c 5d 3f 6a 73 86 3f 6f d4 96 3f 79 86 77 3e
       0.86566794 1.0503972 1.178358 0.24172391
000300 07 cc 0f 3e 04 92 8d bf a2 c4 94 bf 26 72 92 bf
       0.14042674 -1.1060185 -1.1622508 -1.1441085
000310 68 64 9b 3f 01 0a 39 3e a9 38 e8 3e 15 38 fa 3e
       1.2140017 0.18070222 0.45355728 0.48870912
000320 30 a4 52 3e 48 f0 da 3e cc f1 64 bc f6 0d 5a 3e
       0.20570445 0.42761445 -0.0139736645 0.21294388
000330 59 eb 49 3d 47 3d 3a 3e 87 3b 02 3e 60 d7 b5 3d
       0.04929671 0.18187438 0.1271802 0.0887897
000340 bc bd 21 be 3c 87 4e be 9e c0 cb bd dd 47 55 be
       -0.15795034 -0.20168775 -0.09948848 -0.20828195
000350 cd 4f 06 be 04 58 29 be 18 4d c4 bd 68 e9 34 be
       -0.13116379 -0.16537482 -0.09585017 -0.17667162
000360 db 64 6f be 81 39 62 be ab 11 4d bd 48 6a 35 be
       -0.23378317 -0.22092248 -0.050065678 -0.17716324
000370 f6 4e ce bd 69 eb ff bd e4 73 09 be 8d b6 f2 bd
       -0.10073654 -0.12496073 -0.13423115 -0.11851225
000380 c1 94 f7 bd 14 53 90 bd 48 79 ef bc 20 de 61 bd
       -0.120889194 -0.07047096 -0.029232636 -0.055143476
000390 e6 95 4d be 2e c0 d2 bd 3b ad 13 be c0 07 97 bd
       -0.20076713 -0.102905616 -0.14421551 -0.07374525
0003a0 c6 fb 24 be d8 84 3d 3c a6 d4 25 3d a8 e6 7c 3c
       -0.16111669 0.011567317 0.040486 0.015435852
0003b0 c0 a3 6d bb 09 dd b7 3d 2e c1 07 3d eb e9 99 3d
       -0.0036260933 0.08977706 0.033143215 0.075153194
0003c0 af ad ca bd a8 61 9d bd 64 9e 81 3c 2a d8 2c 3d
       -0.09896409 -0.07684642 0.015822597 0.042198338
0003d0 28 81 f3 3d c8 df c8 3d b0 3d a2 bb 24 7c ab bc
       0.11889869 0.09808308 -0.0049512014 -0.020933218
0003e0 b5 51 d5 bd 6a 89 00 3e 34 81 4d 3d bc 80 8b bd
       -0.10415975 0.1255242 0.050172046 -0.068116635
0003f0 24 01 7b 3d c0 61 7e bb 19 b8 cb bd b4 21 66 be
       0.061280385 -0.0038815588 -0.09947223 -0.22473794

conv.2.bias f4 [16]
000000 d4 c4 05 3e 08 6a f8 bc cf 70 b6 3d 82 6a af bd
       0.13063365 -0.030323997 0.08908235 -0.08565237
000010 ce 1b 1e be 2d 2e 8d be 1e 1f 0b be ee 40 93 3e
       -0.15440294 -0.27574292 -0.13586089 0.28760475
000020 f0 1e 88 bd ac 49 c1 bb a2 e8 02 bd 14 d8 2e be
       -0.06646526 -0.005898675 -0.031960137 -0.17074615
000030 9c a1 64 3e 31 a5 ec 3d 2e 19 df bd e5 b8 77 3e
       0.22327274 0.11554945 -0.108934745 0.24191625

conv.4.weight f4 [16, 16, 3, 3]
000000 9e e2 b1 3d 6f c5 46 3e ea 5d 08 3e 1e 05 99 3e
       0.08685802 0.19411252 0.13317075 0.29886717
000010 1d 97 11 3e 3d f3 1d 3e c8 55 dd 3e 9d 7d 06 3f
       0.14217801 0.1542482 0.43229508 0.5253542
000020 9e 3b 46 3e cc 26 f5 3d 98 d1 dd 3d 9a f2 13 3e
       0.1935868 0.119702905 0.108309925 0.14448014
000030 d8 a3 11 be 9c 35 92 3c 5d 5e 89 3d 1a a5 53 3d
       -0.14222658 0.017847829 0.067074515 0.051671125
000040 11 da 94 3d a1 f4 32 3e 22 cf a4 3e 64 a8 0e be
       0.07268155 0.17476131 0.3218928 -0.13931423
000050 b4 e8 a3 3e f0 bb b9 bb 50 5d 03 bf e9 b8 9b 3e
       0.32013476 -0.005668156 -0.5131426 0.30414513
000060 b8 14 f9 be 0f b6 5f bf ae ba 14 bd bc e2 12 3e
       -0.4864862 -0.87387174 -0.036310844 0.14344305
000070 14 fa d3 3d 72 30 08 3e 5e ca 36 3e 56 e9 45 bd
       0.10350433 0.1329973 0.17850634 -0.04831823
000080 ce 77 40 3e a9 63 74 3e e0 22 aa 3c 3f 2b 38 3d
       0.18795702 0.23866142 0.020768583 0.044963118
000090 cd ef c7 3c ec ef 82 3d c8 4b ba 3c f0 b3 18 3e
       0.024406338 0.06393418 0.022741213 0.1491239
0000a0 bc e4 03 3d 65 fe 8b 3d f3 79 2d 3e 10 8f e1 bc
       0.03220056 0.06835631 0.16941051 -0.027534038
0000b0 10 f0 0a bd 5c d9 d9 3c 0c c4 92 3c 32 50 44 3d
       -0.033920348 0.026592903 0.017915748 0.047928043
0000c0 7c 0f be 3c 80 8f b8 3b 93 f5 96 bd a2 a1 18 be
       0.023200743 0.005632341 -0.07371058 -0.14905408
0000d0 ef 6e 9c 3d 00 19 9b bb e6 12 b6 3d 06 7c 18 3e
       0.076383464 -0.004733205 0.08890323 0.14891061
0000e0 2e 01 be 3d e4 9b 8c 3d 04 69 d1 3d 6e 3f 7a 3d
       0.09277569 0.06865671 0.10225108 0.061095648
0000f0 59 49 fe 3d 04 bd 28 3e fa 97 ea 3d 5b eb a0 3d
       0.12416334 0.16478354 0.114547685 0.078573905
000100 c0 ba 99 3b 01 62 02 bd bd f1 d6 3d 3a fc 0e 3e
       0.004691452 -0.031831745 0.10495327 0.13963404
000110 d5 8d f6 bd 84 cc d1 3e d1 26 22 3f 85 fc 1a bc
       -0.12038771 0.40976346 0.6334048 -0.009459619
000120 28 cb 3f 3c b5 92 d1 bd 08 c3 2b bd f4 b8 9a bc
       0.011706151 -0.1023306 -0.041934043 -0.01888702
000130 42 da 67 be f3 fe 4e 3d 69 d3 f1 3d 0d 39 41 be
       -0.22641852 0.050536107 0.118079014 -0.1886942
000140 85 c9 26 be 6b 43 aa bc 7c 43 46 bd 30 14 1a 3e
       -0.16287811 -0.0207841 -0.048404202 0.15046763
000150 d1 87 ef 3d 00 c3 08 3d dc d7 3a 3d bf d0 6f bd
       0.11695827 0.03338909 0.045616016 -0.058548685
000160 ec 78 59 bd 73 12 b4 3d 21 c5 a3 bd 9c 30 21 3d
       -0.053093836 0.087925814 -0.07996584 0.039353
000170 48 3f 89 3d 4c 61 7e 3c f6 0a 6e bd 0c a2 13 bd
       0.06701523 0.015526127 -0.058115922 -0.03604321
000180 80 64 81 3a 15 00 10 3e 2c 0f a2 bc f4 58 ca bc
       0.000987187 0.14062531 -0.019782625 -0.02470062
000190 48 00 f7 3c a4 21 ec 3d 80 c6 05 3b b7 18 a7 bd
       0.030151501 0.11529854 0.0020412505 -0.08159011
0001a0 e0 91 6e bb e5 fe 81 3d 9a 35 81 bd 84 41 92 3c
       -0.0036402866 0.063474454 -0.06309052 0.017853506
0001b0 96 85 46 3e c2 da ae 3e 09 b5 c2 be 20 8b 60 3e
       0.19386896 0.34151274 -0.38028744 0.21928072
0001c0 57 c1 91 3e 34 e4 d7 be f2 17 b1 3d d0 ec 3c 3f
       0.2846782 -0.42166293 0.08647145 0.7379885
0001d0 f0 bd 6b be 96 d8 25 be 4a bf 25 bf 67 3c 99 3f
       -0.23021674 -0.16195902 -0.6474501 1.1971558
0001e0 9c 60 c0 bd 4e 4e f8 3d ba 00 a2 3e 84 a4 15 bd
       -0.09393427 0.121243104 0.3164118 -0.036533847
0001f0 ed 22 3c bf 9a ee 6f be 65 0e 6e 3d cf 43 b7 3d
       -0.7349079 -0.23430863 0.058119196 0.0894848
000200 9d ac 29 3e 20 18 35 3e ba a0 1d 3e 94 79 b2 3d
       0.16569753 0.17684984 0.15393344 0.087145954
000210 c8 ed de 3d fe 88 2b 3d e7 8f 8f 3d c1 d7 8d be
       0.10885197 0.041878693 0.07009869 -0.2770367
000220 34 e7 9d 3e d6 d7 64 3f 18 7a 3c bb 5a 3f 2d be
       0.30840456 0.8939184 -0.0028759297 -0.16918698
000230 b7 4a b3 be 88 69 0a bd 1f ac 6c bf 11 e8 0c 3e
       -0.3501794 -0.03379205 -0.92450136 0.13760401
000240 f2 15 16 bd b2 fb 31 be 10 5c 4d bd dd d5 02 be
       -0.036642022 -0.1738117 -0.050136626 -0.12776895
000250 7e 5a 06 be d4 72 7c bd cb 4f 84 bd 9c 0f 85 bd
       -0.13120458 -0.061632946 -0.06460532 -0.06497118
000260 b5 26 90 bd 20 71 6d bb ee 1e 90 bd 16 1a 5a 3d
       -0.07038633 -0.0036230758 -0.07037149 0.053247534
000270 80 c2 33 3b ee 4e 26 3d 20 2c 9c bd 7e b8 11 bd
       0.0027429163 0.040602617 -0.07625604 -0.035576336
000280 c0 d6 db 3a 18 c1 0c bc ed d9 9f 3d 0d 23 84 3d
       0.0016772375 -0.008590959 0.07805238 0.06451998
000290 d6 c2 bb bc 64 0b 85 bd 60 29 75 bd de cb 23 3d
       -0.022920053 -0.06496313 -0.05985391 0.039989345
0002a0 80 c2 99 bb 1f 53 81 bd 25 68 96 3d d6 1c 1f be
       -0.0046923757 -0.06314682 0.07344083 -0.15538344
0002b0 33 4b da bd 34 e7 32 be e3 c0 9a bd 0c 66 2d be
       -0.10658874 -0.1747101 -0.075563215 -0.16933459
0002c0 bf 08 33 be ce 28 3a bd 72 2e 1f be ec d9 e7 bd
       -0.17483805 -0.04544907 -0.15545061 -0.11320862
0002d0 f6 da fb bc f5 68 9b 3d 6f cc 97 bd 38 07 6d 3c
       -0.030744057 0.07588378 -0.074120395 0.014467053
0002e0 00 04 03 3b c0 a9 3c bc bc 61 df 3c 99 d7 a6 3d
       0.0019991398 -0.011515081 0.027268283 0.08146591
0002f0 58 0b 68 bd f6 ed 7c bd 70 0e 25 bd 00 1b fe bb
       -0.056651443 -0.061750375 -0.04029697 -0.0077546835
000300 aa 27 74 3d 90 f4 bf bc e8 8e 22 3c a0 f9 54 3b
       0.05960814 -0.023432046 0.009921767 0.003249742
000310 c6 25 43 3d 80 b5 a8 bb fb 12 da bd 29 38 03 be
       0.047643445 -0.0051485896 -0.106481515 -0.12814392
000320 ac ae 32 bd 30 c8 ab bc 67 e5 da bd fe d0 27 bd
       -0.04362361 -0.02096948 -0.10688286 -0.040970795
000330 e3 fd 99 bd bd da 99 bd e5 fa 97 bd 66 1b 39 be
       -0.07519128 -0.07512424 -0.07420901 -0.18076858
000340 7d f7 9d 3d 4b 6b a2 bd 0c c3 38 be 0a 9c 46 3d
       0.0771322 -0.07930621 -0.18043154 0.048488654
000350 a0 5b 07 3b 78 67 00 be 45 c8 09 be e8 fb 7d bd
       0.0020653978 -0.1253947 -0.13455303 -0.062007815
000360 ab bb 9e 3d 90 aa 04 3d c0 20 81 bb 23 1b 9a bd
       0.077506386 0.032389224 -0.0039406717 -0.07524707
000370 30 40 fd bc d5 f2 8d 3d 09 2b 93 3d 40 d2 fa ba
       -0.030914396 0.06931082 0.07185943 -0.0019136146
000380 b4 7e b9 3c 28 a7 1e 3c b2 71 2f 3d 91 c6 92 bd
       0.022643425 0.009683408 0.042833038 -0.0716678
000390 66 85 2b be 0d 4d b7 bd b0 fd 14 be 8d d3 81 3d
       -0.16750106 -0.08950243 -0.14549899 0.06339178
0003a0 bd c5 e4 bd 34 8b 02 be de 15 7f bd ab 67 9f bd
       -0.11170528 -0.12748414 -0.062276714 -0.07783445
0003b0 37 76 81 bd f0 5a 83 bc f0 a3 9c 3b 12 7a 3a 3d
       -0.06321376 -0.016034573 0.004780285 0.04552657
0003c0 3c ec ce bc f6 3b 24 bd 60 f8 f8 bc 12 bf 5a 3d
       -0.02525913 -0.040096246 -0.030391872 0.053404875
0003d0 72 23 68 3d ee da 23 bd ef dd 93 bd bb 51 80 3d
       0.05667443 -0.04000371 -0.07220065 0.06265589
0003e0 5c b5 f6 bc 35 77 9c 3d ba 4d 57 3d 5e 66 6d 3d
       -0.030115776 0.076399244 0.05256436 0.057958953
0003f0 1b c6 99 bd c1 fe 9a 3d 21 9a 9e 3d 60 b5 53 bc
       -0.07508489 0.07568122 0.077442415 -0.012921661

conv.4.bias f4 [16]
000000 89 b4 d5 3e 48 63 36 be a6 b7 b2 3e 50 1e 11 bd
       0.417393 -0.1781131 0.34905738 -0.0354293
000010 41 43 e5 bd 36 5c 97 3c 54 1f c1 3d cf 59 9f bd
       -0.11194468 0.018476587 0.094298035 -0.077808015
000020 c5 29 ad bd 90 5e 0f 3f 68 5c 34 be fe 7f 04 be
       -0.084552325 0.56003666 -0.17613375 -0.1293945
000030 34 10 ce bd 6f 78 e0 bd ba 96 12 be 1e 4f 5a 3d
       -0.10061684 -0.10960471 -0.1431531 0.05329811

linear.weight f4 [6, 16]
000000 5d 6a cf bd da ec 8b bd b3 15 13 be 5d 19 67 be
       -0.10127709 -0.06832285 -0.14363746 -0.22568269
000010 80 39 7f 3c 2c 48 c5 bd e8 99 16 3e 50 08 8e 3d
       0.015577674 -0.09632906 0.14707148 0.06935179
000020 db 10 27 bd ae 93 f4 be f5 16 6f be 4f be b3 bd
       -0.04078756 -0.4776892 -0.23348601 -0.08776533
000030 f9 07 06 3e c0 02 d9 ba 00 67 f2 bb 19 af 5a be
       0.13088979 -0.0016556606 -0.0073975325 -0.21355857
000040 d3 50 80 be e7 0f ab 3d 78 ed 6c 3d 1a 2d 04 be
       -0.25061664 0.083526425 0.057843655 -0.1290783
000050 4d 56 8d 3e 31 61 7f bd 97 39 e4 bd 90 d5 3c 3d
       0.27604905 -0.06234855 -0.11143797 0.046102107
000060 a0 9c af 3d 25 c5 00 bf e8 93 fe 3d 70 fa 8d bc
       0.08574796 -0.5030082 0.12430555 -0.017331332
000070 4a 5f 4f 3e b8 9a 3f 3d 68 7a 33 3e be 95 1a be
       0.20251194 0.04677841 0.17527163 -0.15096185
000080 98 27 40 bf 44 4c 23 3d d5 2f bf be 34 5d 92 bd
       -0.75060415 0.039867654 -0.3734118 -0.07146683
000090 80 31 6f bc 22 f7 08 bd 8b a8 25 3e 14 0e 44 be
       -0.014599204 -0.03343881 0.16177575 -0.19145995
0000a0 ce ca dc 3b 7a be de be 8b e3 02 3e 2c 7c 14 3e
       0.0067380434 -0.43504697 0.12782113 0.14500493
0000b0 20 b1 b9 3d e6 4e a1 be 3c bc 3b 3e 62 80 0e bd
       0.09066987 -0.31505507 0.18333524 -0.034790404
0000c0 3b 42 ea be 1c f4 c6 bd 1e 3e 38 bf 2c 78 ab bd
       -0.45753655 -0.09714529 -0.71969783 -0.0837253
0000d0 ba 25 1a 3e 3b a7 f3 3d 8c 37 99 3d 40 9f c7 3b
       0.15053454 0.11897131 0.07481298 0.006091982
0000e0 28 e9 2a 3e 45 0d 5a bf 41 c8 80 3d 32 85 2d be
       0.16690505 -0.851765 0.062881954 -0.16945341
0000f0 c8 e0 4d 3d b8 44 d1 bd 10 a9 04 bd c2 a8 9a 3d
       0.050263196 -0.10218185 -0.032387793 0.07551719
000100 4f 8a 71 bf a4 05 93 bd d9 67 9a bf 31 27 a1 bd
       -0.9435167 -0.0717881 -1.2062942 -0.07868803
000110 d3 0e 8b 3d 32 48 82 3c 6e 5c 22 3e e8 f2 79 3d
       0.06789937 0.015903566 0.15855572 0.06102267
000120 d0 28 7f 3d d5 1c b5 be ec e9 5e bb 83 45 96 3d
       0.06229478 -0.3537356 -0.003401394 0.07337477
000130 50 99 ff bd b0 e0 10 bd 68 4e b2 bd 3a 62 07 bc
       -0.12480414 -0.03537053 -0.08706361 -0.008263165
000140 81 f5 64 be 68 41 c4 3c 9c 0a 64 bc 4c ff 93 3d
       -0.22359277 0.02395697 -0.013918545 0.072264284
000150 1b 9b a3 be 04 69 e3 be 73 8c a7 bd d8 78 af 3d
       -0.31954274 -0.44416058 -0.081810854 0.08567971
000160 c3 b2 7c 3b 88 e2 ee be ee 81 51 3e 18 0a 7b 3e
       0.0038558699 -0.46657205 0.2045972 0.24515569
000170 8c fc bd bc 5b f3 49 be da 9c 91 3d a2 bd e1 bd
       -0.023191713 -0.19721739 0.07109995 -0.11022498

linear.bias f4 [6]
000000 e1 8b 10 bf 16 95 54 be 16 6a 35 bf bb 4d c0 be
       -0.5646344 -0.20759997 -0.70865 -0.37559304
000010 98 17 ac be 5c 1e 36 be
       -0.3361175 -0.17785019
