agent_code/deep_q_geheimagent/deep_geheimagent.pth (torch_old, 15996 bytes, 8 tensors)

conv.0.weight f4 [8, 1, 3, 3]
0	0xbf86e44f	-1.0538424
1	0x3ed40ce9	0.414161
2	0xbf644b8d	-0.8917778
3	0xc010b7a8	-2.2612095
4	0xbd9d42b1	-0.07678736
5	0x3eeef660	0.46672344
6	0xbf705b31	-0.9388915
7	0xbdf54d47	-0.1197763
8	0xbf6a9bc5	-0.91643935
9	0x3ec192df	0.37807366
10	0x3f632440	0.8872719
11	0x3e7fe0fd	0.2498817
12	0x3f4d7265	0.8025268
13	0xbf8d7ebc	-1.1054301
14	0xbf4c8c92	-0.79901993
15	0x3f1165b1	0.56795794
16	0x3fa15cf8	1.2606497
17	0x3f0c107b	0.5471265
18	0xbf583c3a	-0.844669
19	0xbe834203	-0.256363
20	0xbf2423c7	-0.6411709
21	0xbe769cda	-0.24083272
22	0x3fd9f491	1.7027761
23	0x3f4e2df8	0.8053889
24	0xbf8ad7de	-1.0847127
25	0x3e79f919	0.2441143
26	0xbf812e26	-1.0092208
27	0x4119f1c5	9.621526
28	0xbf1f26b8	-0.62168455
29	0x4119e197	9.617576
30	0xbfa82443	-1.3136066
31	0xbf821806	-1.0163581
32	0xbea64d32	-0.3248077
33	0x4117c107	9.484626
34	0x3ec2bed7	0.38036224
35	0x411d08dd	9.814664
36	0xbe66445c	-0.22487015
37	0xbe950fd1	-0.2911363
38	0xbe8c83dc	-0.2744435
39	0xbd4d5f24	-0.05013956
40	0x3fa941e3	1.3223232
41	0xbddf1b75	-0.10893909
42	0xbe637e04	-0.2221604
43	0x3f5782c2	0.84183896
44	0xbf1ed5ee	-0.6204518
45	0x3ee2ea0d	0.44319192
46	0xbdd52bdb	-0.104087554
47	0x3f6a1d9b	0.91451424
48	0xbf09236b	-0.5356967
49	0x3f9d754e	1.2301424
50	0xbe868308	-0.26271844
51	0x3ee2706d	0.442264
52	0xbf094c0f	-0.5363168
53	0x3ed171d2	0.4090715
54	0x3e2aa157	0.16663109
55	0xbeca31db	-0.39491162
56	0x3dfadc15	0.122490086
57	0xbe4c033a	-0.19923106
58	0x3f348d58	0.70528173
59	0x401c1493	2.4387558
60	0x3dfcd4dd	0.12345288
61	0xbd8b4084	-0.06799415
62	0x3e58fc58	0.21190012
63	0xbebe552e	-0.37174362
64	0x3aac65b9	0.0013152874
65	0xbf3822bf	-0.7192802
66	0x4034b7c4	2.8237162
67	0xbdafcb19	-0.0858366
68	0xbee79692	-0.45232064
69	0xbede2a3b	-0.43391594
70	0x4013af03	2.3075569
71	0xbe4c616f	-0.19959043

conv.0.bias f4 [8]
0	0x3f68bbdb	0.90911645
1	0xbf1217a8	-0.57067347
2	0x3f231876	0.637092
3	0xc11a16e6	-9.63059
4	0x3ed40066	0.41406554
5	0xbf829d01	-1.0204164
6	0xbe049d1e	-0.1295056
7	0x3e7038c8	0.2345916

conv.2.weight f4 [16, 8, 3, 3]
0	0xbeb0cace	-0.34529728
1	0xbe1351f9	-0.14386739
2	0x3eef9337	0.46792004
3	0xbf226647	-0.6343731
4	0x3f039a1a	0.51407015
5	0x3f491d5a	0.7856041
6	0x3e418206	0.18897256
7	0xbc86f06c	-0.016472064
8	0xbfe6386e	-1.7985971
9	0x3f047844	0.5174601
10	0xbf99d84e	-1.2019136
11	0xbd45b7de	-0.048271053
12	0x3f8b5dc9	1.0887996
13	0xbfc069ac	-1.5032248
14	0x3f085010	0.53247166
15	0xbf112322	-0.56694233
16	0xbed08e38	-0.40733504
17	0xbe8034b4	-0.2504021
18	0xbd8b7b0c	-0.06810579
19	0xbf0f42a6	-0.5596107
20	0x3f4be738	0.79649687
21	0xbe6e07f4	-0.23245221
22	0xbf882be5	-1.0638396
23	0xbf242745	-0.6412242
24	0x3f281cdc	0.65669036
25	0x402ede53	2.7323196
26	0x3ea91f45	0.3303167
27	0xbed5eed9	-0.4178379
28	0xc122807a	-10.156366
29	0x3f0d7dcc	0.55270076
30	0xbf82dca6	-1.0223587
31	0xc0e46d9e	-7.138381
32	0xc0bb3269	-5.8499036
33	0x3eb9d6b5	0.3629662
34	0x3f27cf7c	0.6555097
35	0xc11aa12d	-9.66435
36	0x3dcb0129	0.09912331
37	0x400683f1	2.101803
38	0x3f033af9	0.5126186
39	0x3f9f979d	1.2468144
40	0x3ff8b046	1.9428794
41	0x3f1bba46	0.60831106
42	0x3db50583	0.08838942
43	0xbf9e9836	-1.2390201
44	0x3e7788d6	0.24173293
45	0xbfa51028	-1.2895555
46	0x3dcccffe	0.10000609
47	0xbf5d08c4	-0.863415
48	0x3ec6c1f7	0.38819858
49	0x3eca3278	0.3949163
50	0x3f2009d8	0.6251502
51	0xbeec63c2	-0.4616986
52	0xbf35a91e	-0.7096118
53	0xbe604cad	-0.2190425
54	0xbf82dbb1	-1.0223294
55	0x3f1782d3	0.59183997
56	0x3d09347b	0.033497315
57	0x3d8e7fce	0.069579706
58	0x3ca04641	0.01956475
59	0x3e9ab681	0.30217364
60	0xbf7a8c25	-0.97870094
61	0xbfe6455c	-1.7989917
62	0x3fb25015	1.3930689
63	0x3d262ad8	0.040568203
64	0xbec294e6	-0.38004225
65	0x3f44836c	0.76763034
66	0xbf2bbf04	-0.6708834
67	0x3f286ae7	0.6578812
68	0xbdfb43c4	-0.12268785
69	0x3f877a18	1.0584135
70	0x3fa06945	1.2532126
71	0x3fcfa6bc	1.6222758
72	0x3ef2fc00	0.47457886
73	0x3e759987	0.23984347
74	0xbf7bc3c2	-0.9834558
75	0x3f129880	0.57263947
76	0xbf4641f4	-0.77444386
77	0x3eb6b1cb	0.3568252
78	0x3ce4eb4e	0.027944233
79	0x3d0071b1	0.031358425
80	0xbf985142	-1.1899798
81	0xbf3b3880	-0.7313309
82	0x3eb41379	0.35171106
83	0x3f7a36e5	0.9774001
84	0x3ea29aae	0.31758636
85	0xbeb87174	-0.36024058
86	0xbc569298	-0.013096474
87	0xbf13f2b5	-0.57792217
88	0xbf73ae6d	-0.9518803
89	0x3eab576c	0.33465135
90	0x3ed71682	0.4200936
91	0x3ebfbb44	0.3744756
92	0xbf6f0f71	-0.93382937
93	0xbe1c68a0	-0.15274286
94	0xbe9af0d2	-0.30261856
95	0x3f3cd75b	0.73766106
96	0x3fcb8cb3	1.5902313
97	0x3e962305	0.29323593
98	0x3f578f6d	0.84203225
99	0xbf7d8608	-0.9903264
100	0xbcf47613	-0.029841458
101	0x3e9ae4f5	0.30252805
102	0x3fa162e8	1.2608309
103	0xbfe731c2	-1.806206
104	0xc073c4a6	-3.8088775
105	0xbfb45eff	-1.409149
106	0xc0073347	-2.1125047
107	0xc0d744c9	-6.7271466
108	0xbe2ee870	-0.17080855
109	0x3e54d064	0.2078262
110	0x3e8d2b9d	0.27572337
111	0x3f1f3afa	0.62199366
112	0xb89fd4dc	-7.621359e-05
113	0xbecc91b3	-0.3995491
114	0xbec2fd9c	-0.38084114
115	0xbf665b1e	-0.89982784
116	0x3faa211f	1.3291358
117	0xbf272399	-0.6528869
118	0xc046999a	-3.103125
119	0x3f8d2ae1	1.1028711
120	0xbee90668	-0.455127
121	0x3f6b0e2e	0.9181851
122	0x3ea69b78	0.32540488
123	0xbe1f236d	-0.15540858
124	0x3f1ff80a	0.6248785
125	0xbedbdab0	-0.42940283
126	0xbf92b8fb	-1.1462702
127	0xbee2b70d	-0.44280282
128	0x3f0ffbee	0.5624379
129	0xbeb08d45	-0.3448278
130	0xbff05f2f	-1.8779048
131	0xbf0d4d57	-0.55196136
132	0xbf623311	-0.8835917
133	0x3b77c173	0.0037804514
134	0x3fdbed47	1.7181786
135	0xbfcd20ae	-1.6025598
136	0x3f399661	0.72495085
137	0xbe856b73	-0.2605854
138	0xbefcdc14	-0.49386656
139	0x3f0055dd	0.50131017
140	0xbf2ab8d8	-0.666883
141	0xbe4395e5	-0.19100149
142	0xbfbb47a4	-1.4631238
143	0x3ea4d32f	0.3219237
144	0xc08c8c17	-4.392101
145	0xc02879e0	-2.6324387
146	0xbd7c4dcc	-0.06159763
147	0x3f3995cf	0.72494215
148	0xbf808b6f	-1.0042552
149	0xbf2ac8eb	-0.66712826
150	0x3f0dbe12	0.5536815
151	0x3e7d9f74	0.24767858
152	0x3d8b6ac5	0.06807474
153	0xc060be42	-3.5116124
154	0x3e89bf30	0.26903677
155	0x3e8eb723	0.27874097
156	0x3e94325b	0.28944668
157	0xbe280adf	-0.16410397
158	0xbee1a458	-0.44070697
159	0xbf91fc7e	-1.140518
160	0x3f8be618	1.0929594
161	0xbf6995b7	-0.9124407
162	0x3fef7175	1.8706499
163	0xbecec6a3	-0.40385923
164	0x3fb4d700	1.4128113
165	0x3eae4926	0.34040183
166	0x3ffada8b	1.9597944
167	0x3fa7c352	1.3106482
168	0x3f05374f	0.5203752
169	0xbf486c73	-0.7829048
170	0x3efdce17	0.49571297
171	0x3fb70cad	1.4300743
172	0xbd862f18	-0.06551951
173	0xbf57d7b1	-0.84313494
174	0xc11fa043	-9.976626
175	0xc098baf3	-4.772821
176	0x3e82e2dd	0.25563708
177	0xc13e4806	-11.892584
178	0xbfd8a2de	-1.6924703
179	0xbfd052fd	-1.6275326
180	0x3f848741	1.0353776
181	0xbeb20bd6	-0.34774655
182	0xbe0a1045	-0.13482769
183	0xbf55a838	-0.83459806
184	0xc0258f66	-2.5868773
185	0xbf391a66	-0.72305906
186	0x3f4cf2b5	0.8005784
187	0x3f172ea2	0.5905553
188	0xbfad8c73	-1.3558487
189	0xc0474bc8	-3.1140003
190	0x3f03f663	0.5154783
191	0xc02ba416	-2.68189
192	0x3d656f54	0.056014374
193	0x400001ed	2.0001175
194	0xbf019243	-0.506138
195	0xbf01e1b0	-0.50734997
196	0x3ea18eda	0.315543
197	0x3d676334	0.05649109
198	0xbfe6c54f	-1.8028964
199	0xbf21df42	-0.6323129
200	0x3edbff51	0.42968228
201	0xbf81b8c2	-1.0134509
202	0xbf561e3b	-0.8363988
203	0x3ef28489	0.4736674
204	0xbfad3cfe	-1.3534238
205	0x3f4ec912	0.8077556
206	0xbf761592	-0.96126664
207	0x3f141eab	0.57859296
208	0xbeb10cf9	-0.3458021
209	0xbf13f386	-0.5779346
210	0x3ec96cbd	0.39340773
211	0x3f28362f	0.6570768
212	0x3f01fcf6	0.5077661
213	0x3f6a3a96	0.91495645
214	0xbf2b0bca	-0.66814864
215	0x3ed82188	0.42213082
216	0xbe1d399f	-0.15354012
217	0x3e8002c4	0.2500211
218	0xbdc1f9bf	-0.094714634
219	0x3eb65ca3	0.3561755
220	0x3ef91221	0.48646644
221	0xbf1f82be	-0.6230887
222	0x3f55a8a6	0.8346046
223	0x3e404b82	0.18778804
224	0x3eeca2ef	0.46218058
225	0x3d8d6cb9	0.06905503
226	0x3e93f798	0.28899837
227	0x3f04385e	0.5164851
228	0x3eebb51f	0.46036622
229	0x3f6a4c89	0.91523033
230	0x3fa02289	1.2510539
231	0x3e45f5d9	0.19332065
232	0xbdae50f0	-0.08511531
233	0xbf90c74c	-1.131082
234	0xbf88bbdc	-1.068233
235	0xbf055eb0	-0.52097607
236	0x3f8064c2	1.0030749
237	0xbfa03581	-1.2516328
238	0x3fe94850	1.8225193
239	0xbf91ae29	-1.1381274
240	0x3f43cb95	0.76482517
241	0x3db173ca	0.08664663
242	0x3f9fafec	1.2475562
243	0xbf81c1fc	-1.0137324
244	0xbf8ad54d	-1.0846344
245	0xbe0dc939	-0.13846292
246	0x3f86e4b6	1.0538547
247	0xbf84005c	-1.031261
248	0xbfb43413	-1.4078392
249	0xbf24a9f1	-0.6432181
250	0x3e826aa6	0.2547199
251	0xc0453db8	-3.081892
252	0x3f16c849	0.5889936
253	0x3f45cc41	0.7726479
254	0x3dd2ffc9	0.103026934
255	0xbf279788	-0.65465593

conv.2.bias f4 [16]
0	0x3f95dd28	1.1708117
1	0x3fb17607	1.3864144
2	0x400d8da5	2.2117703
3	0x3f3101d1	0.69143397
4	0x3fb86868	1.4406862
5	0x3fd666d1	1.6750127
6	0x3f94fa4e	1.1638887
7	0xbf029a0e	-0.5101632
8	0xbf48984c	-0.78357387
9	0xbdbf8baa	-0.09352811
10	0x3ddbd234	0.107334524
11	0xbff6dbff	-1.9285887
12	0xc08e7664	-4.451952
13	0x3f9060ba	1.1279519
14	0xc0134e8d	-2.3016694
15	0x3fe0e55e	1.7569997

conv.4.weight f4 [16, 16, 3, 3]
0	0xbf433137	-0.7624697
1	0xbee274d7	-0.44229767
2	0xbf4741c4	-0.77834725
3	0x3e6e6889	0.23282064
4	0xbebf6b13	-0.3738638
5	0xbfeda7a5	-1.8566786
6	0xbf544282	-0.8291398
7	0xbf8b85fa	-1.0900261
8	0xbfa4f102	-1.288605
9	0xbf554672	-0.83310616
10	0xbf2688e3	-0.6505262
11	0x3eecae68	0.4622681
12	0xbf3747b3	-0.7159378
13	0xbeb2efcc	-0.34948575
14	0xbfb7d890	-1.4362965
15	0xbf8019ee	-1.0007913
16	0xbf856e23	-1.0424236
17	0xbe884545	-0.26615348
18	0xbe3c1b2e	-0.18369743
19	0xbf0c46f2	-0.54795754
20	0xbf110cd2	-0.5666019
21	0xbec10055	-0.37695566
22	0xbf1e9deb	-0.61959714
23	0xbd02518a	-0.031816043
24	0xbeaa39bb	-0.3324717
25	0xbedb40c1	-0.4282284
26	0xbe9f9904	-0.3117143
27	0xbf2cbdac	-0.67476916
28	0xbf936b1a	-1.151706
29	0xbf674c78	-0.9035106
30	0xbe53344b	-0.20625417
31	0xbf54b937	-0.83095115
32	0xbf97578e	-1.1823595
33	0xbf9a7f73	-1.2070144
34	0xbf590547	-0.8477368
35	0xbf806f56	-1.0033977
36	0xbf47a565	-0.7798675
37	0xbf827aaa	-1.0193684
38	0xbd9b6bad	-0.07588897
39	0x3d39b05f	0.045334216
40	0xbf057dc1	-0.5214501
41	0xbfae833c	-1.36338
42	0xbff07eef	-1.8788737
43	0xbdf16a0c	-0.11787805
44	0x3f585f49	0.84520394
45	0xbf6390e4	-0.8889296
46	0xbe094492	-0.13405064
47	0xbf0ab7b5	-0.54186565
48	0xbee7b0c2	-0.45252043
49	0x3d41d9a0	0.047326684
50	0xbf66b7ee	-0.90124404
51	0xbf8c2c21	-1.0950967
52	0xbeb0ae2e	-0.3450789
53	0xbed9291a	-0.4241417
54	0xbefefb92	-0.49801308
55	0xbf63f9b5	-0.890529
56	0xbda35dc1	-0.079768665
57	0xbf79e9c4	-0.97622323
58	0xbef4f587	-0.47843572
59	0xbfddce63	-1.7328609
60	0xbf2b8254	-0.6699574
61	0xbf12286a	-0.57092917
62	0xbf5129df	-0.81704515
63	0x3c29d1ea	0.010364989
64	0xbfc15019	-1.5102569
65	0xbf9a2285	-1.2041785
66	0xbee75da8	-0.45188642
67	0x3e05c806	0.13064584
68	0xbf5ac4fc	-0.85456824
69	0x3ec9ac71	0.39389375
70	0xbf60e65c	-0.878515
71	0xbea3a8e7	-0.319648
72	0x3d5402f8	0.051760644
73	0x3e0c7bdb	0.13719122
74	0xbeb55fea	-0.3542474
75	0xbe17c233	-0.14820175
76	0xbf1251d7	-0.5715613
77	0x3d9e80cc	0.0773941
78	0x3f25ad0c	0.64717174
79	0x3e37f86a	0.17965856
80	0xbf3a9379	-0.72881275
81	0xbf58f1fb	-0.8474423
82	0xbf9b4252	-1.2129614
83	0xbf13a511	-0.57673746
84	0x3e425baa	0.1898028
85	0xbf0296aa	-0.51011145
86	0x3f1270a6	0.5720314
87	0xc00dc0e7	-2.2148988
88	0xbf8875d7	-1.0660962
89	0xbeaafef3	-0.33397636
90	0xbf265911	-0.64979655
91	0xbee2ad15	-0.44272676
92	0xbe87b8cb	-0.26508173
93	0x3dd22ff6	0.10263054
94	0xbdf37abb	-0.11888643
95	0xbebe38ae	-0.37152618
96	0xbf82dc90	-1.022356
97	0xbf78de42	-0.9721414
98	0xbf52c608	-0.8233342
99	0xbe2aea62	-0.16690972
100	0x3f1335e8	0.5750413
101	0xbe997b5c	-0.29976928
102	0xbe3d0420	-0.18458605
103	0xbf3affc4	-0.7304652
104	0x3d8856a4	0.066571504
105	0xbf171c44	-0.59027505
106	0xbfb36920	-1.4016457
107	0xbf8cfe4a	-1.1015103
108	0x3d3fe56f	0.046849664
109	0x3cc76838	0.024341688
110	0xbd412376	-0.04715296
111	0x3e2111f1	0.157295
112	0x3e291496	0.16511759
113	0x3e5b789e	0.2143273
114	0x3e363992	0.17795399
115	0xbd3decae	-0.046368293
116	0x3ea70d18	0.32627177
117	0xbf112a74	-0.56705403
118	0xbebeccc1	-0.3726559
119	0xbeb46546	-0.35233516
120	0xbfa9f6a9	-1.32784
121	0xbf37c917	-0.71791214
122	0xbecd38f6	-0.4008252
123	0xbf9d6f20	-1.2299538
124	0xbf7c2595	-0.98494846
125	0xbf2d918b	-0.67800206
126	0x3ea466d6	0.32109708
127	0xbe45132b	-0.19245593
128	0xbdfbb13a	-0.12289663
129	0x3e95c224	0.2924968
130	0xbe7f98d2	-0.2496064
131	0x3f2e26d0	0.68027973
132	0x3ea7c9da	0.32771188
133	0xbea75c6a	-0.32687694
134	0x3f95c4d1	1.1700689
135	0xbf205a54	-0.6263783
136	0xbfaf212f	-1.3682002
137	0xbf824067	-1.0175904
138	0x3eaba6a6	0.3352558
139	0xbf81c137	-1.013709
140	0xbfa624ba	-1.2979958
141	0xbfbb0a01	-1.4612428
142	0xbea59337	-0.3233888
143	0xbfcac6a6	-1.5841873
144	0xbfe66bcc	-1.8001647
145	0x3ea4526d	0.32094136
146	0xbf25af79	-0.64720875
147	0xbd58e9fc	-0.05295752
148	0xbed392a6	-0.4132282
149	0xbfe7d585	-1.8112036
150	0x3dda4475	0.106575884
151	0x3ef42678	0.476856
152	0x3c10c588	0.008836158
153	0xc00f78f4	-2.2417574
154	0xbf8b7ac4	-1.089684
155	0xc01cae78	-2.4481487
156	0xbf8f3a87	-1.1189736
157	0xbfaa3f6b	-1.3300604
158	0x3e96f40b	0.29483065
159	0x3df480bc	0.11938617
160	0xbfbd4296	-1.4785945
161	0xbce415c8	-0.027842417
162	0x3ee6339a	0.44961244
163	0xbf5179c4	-0.81826425
164	0xbf0c0a74	-0.5470345
165	0x3e99fce6	0.3007576
166	0xbf7134e7	-0.9422135
167	0x3e3bce14	0.18340331
168	0xbead8972	-0.33893925
169	0xbf2fc712	-0.6866313
170	0xbe8fdbb0	-0.28097296
171	0xbf5e56ae	-0.8685101
172	0xbfec38c1	-1.845482
173	0xbf251f97	-0.6450133
174	0xbdd28b33	-0.102804564
175	0xbf5e60e7	-0.8686661
176	0xbe551fbe	-0.2081289
177	0xbf41f4a2	-0.75763905
178	0x3edf3a4c	0.43599164
179	0xbf01bb09	-0.5067602
180	0xbedc5d63	-0.43039998
181	0x3ee2e4bc	0.44315135
182	0xbeafde9b	-0.34349522
183	0x3e883b90	0.26607943
184	0xc030612a	-2.7559304
185	0x3e9d0d53	0.30674228
186	0xbf2f50e7	-0.6848282
187	0xbfa2f4c4	-1.2730947
188	0xbfd05898	-1.6277037
189	0xbfb6e853	-1.428965
190	0xbe88ce5a	-0.26719934
191	0xbe01c2a6	-0.12671909
192	0xbfd657e8	-1.6745577
193	0x3ec4062f	0.38285968
194	0xbe2de63f	-0.16982363
195	0x3ed06d01	0.40708163
196	0x3deecb61	0.11659885
197	0xbecb36ec	-0.3969034
198	0xbe8079e2	-0.2509299
199	0xc0136ff7	-2.3037088
200	0x3ed89245	0.42299095
201	0x3e927050	0.28601313
202	0xbff847b7	-1.9396886
203	0x3f2cfadc	0.6757028
204	0x3f053d64	0.520468
205	0xbfd38867	-1.6526002
206	0x3de4ad49	0.11165864
207	0x3f60522c	0.87625384
208	0xbfc2c809	-1.5217296
209	0xbe78de3c	-0.24303526
210	0x3ea96092	0.3308149
211	0xbfadf4ac	-1.3590293
212	0xbf3d8612	-0.740327
213	0xbf9d2a41	-1.227852
214	0x3f0617c6	0.52380025
215	0x3e9bc6cc	0.30425107
216	0xbfa9ab5e	-1.3255422
217	0xbf4136b1	-0.7547408
218	0xbf78b153	-0.97145575
219	0x3c48e2aa	0.012261072
220	0xc05cf665	-3.4525387
221	0x3f4d7742	0.802601
222	0xbe76c089	-0.24096884
223	0x3f90664f	1.1281222
224	0xbe103f27	-0.1408659
225	0xbf5366be	-0.8257865
226	0xbecaee9a	-0.39635164
227	0xbe9aeb4a	-0.30257636
228	0xbe649420	-0.2232213
229	0xbf44a3a1	-0.7681218
230	0x3d029b9b	0.03188668
231	0xbfd4d1f5	-1.6626574
232	0xbd990239	-0.07471127
233	0xbf5baa9f	-0.8580722
234	0x3f0c8d9d	0.54903585
235	0xbf84a7d6	-1.036372
236	0xbf580860	-0.8438778
237	0xbdcdd6f9	-0.100507684
238	0xbf464c65	-0.7746032
239	0xc02466ac	-2.5687666
240	0x3ee91093	0.45520458
241	0xbf046140	-0.5171089
242	0xc082a5c1	-4.0827336
243	0xbfa38a8f	-1.277666
244	0x3e30935b	0.17243712
245	0xbf8f530d	-1.119722
246	0x3eb8a62b	0.36064276
247	0xbee3766a	-0.4442628
248	0xbfb4d390	-1.4127064
249	0xbf1a55b1	-0.60287005
250	0xbf3c909c	-0.73658156
251	0xbfdcec0a	-1.7259533
252	0xbeb13bed	-0.34616032
253	0xbe52519c	-0.20538944
254	0xbf166730	-0.587512
255	0xbea5380a	-0.32269317

conv.4.bias f4 [16]
0	0xbf107011	-0.56421
1	0xbf0e2641	-0.5552712
2	0xbe9e6fb0	-0.30944586
3	0xbe8843d7	-0.26614258
4	0xbec8613f	-0.39136693
5	0x3fdb89e4	1.7151456
6	0xbf96707f	-1.1753081
7	0xbf8d0f0d	-1.1020218
8	0xbe8095ab	-0.25114188
9	0xbf930c85	-1.1488196
10	0x3f8cf939	1.1013557
11	0xbe742d40	-0.23845387
12	0xbfa72e03	-1.3060917
13	0xbf1c5bc7	-0.6107754
14	0xc00edbca	-2.2321649
15	0x3da7c0ae	0.081910476

linear.weight f4 [6, 16]
0	0xbf6725af	-0.90291876
1	0xbf845967	-1.0339783
2	0xbd3357f0	-0.043785036
3	0xbcd326fc	-0.025775425
4	0x3d1ce1c8	0.03830126
5	0xbea7957e	-0.3273124
6	0xbf88fa8a	-1.0701458
7	0x3cb6d820	0.022319853
8	0x3dee4110	0.116335034
9	0xbfc15e5e	-1.5106924
10	0xbf3db93b	-0.74110764
11	0xbdf4f1ca	-0.1196018
12	0xbee02a8d	-0.43782464
13	0x3f5cea7c	0.86295295
14	0x3f11c3c3	0.56939334
15	0xbf47f480	-0.7810745
16	0xbf19368a	-0.59848845
17	0xbff0016b	-1.8750433
18	0x3c8044e8	0.015657857
19	0x3ed83641	0.42228892
20	0x3dfe0acc	0.12404403
21	0xbe8b3bac	-0.27193964
22	0x3d312117	0.043244448
23	0xbf194213	-0.59866446
24	0xbd4e9038	-0.050430506
25	0xbd0c4e6e	-0.034254484
26	0x3c04f2e6	0.008114552
27	0xbd7707a4	-0.06031002
28	0xbe9fa324	-0.31179154
29	0x3eea078c	0.45708883
30	0x3f54d867	0.83142704
31	0xbf8f29f8	-1.1184683
32	0xc000841c	-2.0080633
33	0xbf289141	-0.6584664
34	0x3d6a60c6	0.057221197
35	0xbf754025	-0.95801
36	0x3e2ab2af	0.16669725
37	0xbe98cb7e	-0.29842752
38	0xbea57752	-0.32317597
39	0xbf3cb0ce	-0.7370728
40	0x3dc6f8b0	0.09715402
41	0xbf804476	-1.0020893
42	0xbf3c95b9	-0.7366596
43	0x3d12c948	0.035836488
44	0x3ccc7b2c	0.024961077
45	0xbdc397ff	-0.09550475
46	0xbd535e60	-0.051603675
47	0xbf70f80a	-0.9412848
48	0x3dc1bc55	0.094597496
49	0xbfaaf1d2	-1.3355048
50	0x3dd44ae1	0.103658445
51	0x3e76f019	0.24115027
52	0xbdcc2454	-0.099678665
53	0xbeae688d	-0.3406414
54	0xbf5280cb	-0.8222777
55	0xbf989f2b	-1.1923574
56	0x3c99d310	0.0187774
57	0xbf4a2376	-0.7896036
58	0xbef24b19	-0.4732292
59	0x3e489824	0.19589287
60	0xbf5d1357	-0.86357635
61	0xbda3d09e	-0.07998775
62	0x3f65f962	0.8983365
63	0xbf32efbb	-0.6989705
64	0xbe33cbfd	-0.17558284
65	0x3f4b5856	0.79431665
66	0xbd2e3db8	-0.04253933
67	0xbfd2760b	-1.6442274
68	0xbb8d02c0	-0.0043033063
69	0x3c781dd8	0.015143834
70	0xbf03c068	-0.51465464
71	0xbc9da99d	-0.019245917
72	0x3dce9a6e	0.10088049
73	0xbf840d42	-1.0316546
74	0x3c7d964c	0.015477728
75	0x3a771c80	0.0009426549
76	0xbfb0f23b	-1.3823923
77	0xbf52364a	-0.8211409
78	0xbf17fce5	-0.5937026
79	0xbf262246	-0.6489605
80	0x3d3b0053	0.045654606
81	0xbf712a4c	-0.94205165
82	0x3d9fe54b	0.07807406
83	0x3c83afb9	0.016075002
84	0xbd02d982	-0.031945713
85	0x3bbdba15	0.005790005
86	0xbed1ad26	-0.40952414
87	0x3d14e486	0.03635075
88	0x3d455fc6	0.04818704
89	0xbe81b8cc	-0.253363
90	0x3a09a03b	0.00052500115
91	0xbdb60894	-0.08888355
92	0xbfc2f26c	-1.5230231
93	0xbf22b87c	-0.6356275
94	0x3f36b10a	0.7136389
95	0x3c102610	0.008798137

linear.bias f4 [6]
0	0xbedc4d10	-0.43027544
1	0xbf10802f	-0.5644559
2	0xbe784a44	-0.2424708
3	0xbe6282f3	-0.22120266
4	0xc0611087	-3.5166337
5	0xbd066284	-0.032808796
