agent_code/deep_q_geheimagent/deep_geheimagent.pth (torch_old, 15996 bytes, 8 tensors)

conv.0.weight f4 [8, 1, 3, 3]
00000000: ab2b b93e 6c95 983d cf59 c03e d005 103d
00000010: b89d 20be 6bd4 213f 4c33 40bc 44d1 463e
00000020: b756 0e3c 1abe 8cbe 1494 4cbc c244 41bf
00000030: 8ccf 3e3e 503b 61bc d97b 093f b4d0 22bf
00000040: 4553 263f 9efe 3dbf 3cfd 813e 0482 debe
00000050: 78e1 c4bd c204 053d 05c6 04bf 606b 143f
00000060: 93de 9c3e 4cc2 5a3e 425c 5c3e a364 f8be
00000070: cee6 1a3f 736d f0be 9b29 9a3e 07d3 833e
00000080: eb6c d13e fb26 12bf ca91 dfbd 25a1 04bf
00000090: 41dc 20bf 5c01 a9be 53d4 35bf 0ab3 733e
000000a0: 898c bf3e db4c c43e e75d cbbe a150 1f3f
000000b0: f318 32bf 4a12 2a3d 4e2e abbe b900 f2bc
000000c0: 65cf a3be f969 06be be38 39be ac59 f9bd
000000d0: a8e3 0c3f 12b2 41be 3394 aebe d44f 0cbf
000000e0: dbc8 c1be 209c c2be 1a64 4e3d 1ff6 01bf
000000f0: 7e0a 2fbe a2ee b8be ac48 f63d 505c e4be
00000100: 2021 ed3e 6283 11bf 13c1 9f3e 39e1 0e3f
00000110: ed52 bd3e 77e8 95bd e129 8cbe a1f0 28be
0.3616613 0.07450375 0.3756852 0.035161793 -0.15685165 0.6321475 -0.01173098 0.19415766
0.008687667 -0.27488786 -0.012486476 -0.7549554 0.1863386 -0.013747051 0.537046 -0.63599706
0.6497081 -0.7421664 0.25388515 -0.4345857 -0.09613317 0.03247524 -0.51864654 0.5797634
0.3063856 0.21363181 0.21519569 -0.4851428 0.6050843 -0.46958503 0.30109867 0.2574694
0.4090341 -0.5709073 -0.10916479 -0.5180839 -0.6283608 -0.3300885 -0.71027106 0.23798767
0.37411907 0.38339886 -0.3972008 0.62232405 -0.6956932 0.041521348 -0.33433765 -0.02954136
-0.31994167 -0.13126363 -0.18088052 -0.12175307 0.55034876 -0.18915585 -0.34097442 -0.5480931
-0.37848553 -0.3800974 0.050388433 -0.50766176 -0.17093846 -0.36119562 0.1202558 -0.4460168
0.46314335 -0.568411 0.3120199 0.5581241 0.3697733 -0.0731973 -0.273757 -0.16498043

conv.0.bias f4 [8]
00000000: 9a47 c7be 9ae4 1a3e 6b3e 6bbe 96c6 453e
00000010: 8630 573e 2912 19be 5854 2f3e 7175 4f3e
-0.38921815 0.15126267 -0.2297303 0.19314036 0.21014604 -0.14948334 0.17122018 0.20259644

conv.2.weight f4 [16, 8, 3, 3]
00000000: 1b5f 733e 7de3 e03e 5a81 a13f 8a85 fc3d
00000010: b48f c63e 985d 433d 6046 aebe fcd9 043d
00000020: c0c7 a33c 2b42 94be 8495 dcbb 7f81 1c3f
00000030: adad 63be 652c 46bc a5fd 01be 6fa8 d2bc
00000040: 1d80 59be ef78 61be c589 0a3e a727 e23e
00000050: 0902 ae3f d03b cf3c e540 03bf d44c 09be
00000060: 32e2 babe 8c8f 01be 6212 813e db89 cbbd
00000070: cc0c 6dbe 55ef 013e 1646 583e cdd9 37be
00000080: 94df 37bd e47e 3bbe 7e09 b5bc ab5e e0bd
00000090: f2f7 a0be e5ca ecbd 1e2f 9c3e 3168 21be
000000a0: 3f7f 54ba f5a6 34be 9af6 dcbd 12f8 4fbd
000000b0: 1667 26bd d004 283d 14bd 60bd e0ca 3cbe
000000c0: 9a55 09be 8433 3c3e 000a 6bbc 6331 a13b
000000d0: a885 313e da88 de3d 8dcb 1ebe 97e6 ccbc
000000e0: 3391 19bf 2f94 33bd d2b6 1abf 588a 58be
000000f0: dcf6 66bc 4948 513e e0bf 463f 2550 833e
00000100: 81f1 d2bd 3411 ae3e 6c35 593e 92a5 c83d
00000110: 6e60 a1bc da53 61be 5bcf f6bd 9e0a 063e
00000120: 1a1f e7be 0740 c83e 2fff e0be 607c 5bbf
00000130: 392d 223e dbc8 b1be fe9a 92bd 321f 953d
00000140: 82e9 1cbd 29f4 69bd 996f 833e f4f5 cd3e
00000150: 7dcf 8c3e c7fa 413e 8e11 1a3e 5cab 3b3e
00000160: a399 5f3e d415 683e 14e2 f3be de75 7d3f
00000170: 26a1 793e 5ece 883e 8fb9 4b3e 8e79 e7bd
00000180: dc12 bfbe 109c 843e 0622 413d d086 473a
00000190: d111 e53d daa0 b43d 9b7a 523e 1d7f f73d
000001a0: 0b4a a23d 356f 093e d15d 4c3e 83af 293e
000001b0: 1f42 bfbd 1afc 4a3e cc79 733d 60a5 843e
000001c0: a944 913e 03b3 8f3e ca4d 273e 4b6d 6b3e
000001d0: 2a53 c33d bcd7 b1bc 1d52 c73c 84ee a23d
000001e0: 22a0 d3bc f0a0 9bbd 4e0d 883d a02c e2bd
000001f0: 6c68 f73d 22f2 4dbe 05ef b73e fe16 113e
00000200: 2b4e 043e b293 f43e bc88 e23e 083e 18be
00000210: e3f0 b13d 9488 3e3e 666f 303e 1804 a93c
00000220: 72c4 573d 58af 843d 78f8 513d d511 433e
00000230: aca0 5a3e 3bfd b23c aa4f 983d fa6b f53d
00000240: 442a db3c 4720 91bd 7ffb 283f 6f99 033f
00000250: 87a1 09bf 0e7f 06be d878 a13c 6a03 c83d
00000260: 4c11 0bbe eb3e b3be e899 37be 3543 5c3e
00000270: e021 c9be 3869 20be 9a1d 27be ba56 f83d
00000280: 1b01 24be 6508 d23d e3d3 9a3c 9f58 b1be
00000290: 3c57 5d3f 998a 173e 78c1 bc3e 6aff 3bbe
000002a0: 2c59 253f 6ea0 df3e 0a43 8d3d 5ff4 acbe
000002b0: 8d01 123e 234e 6c3e b3b2 543e d383 2dbe
000002c0: 66cb 80be 5606 c83e 884a 91be 1e9a 50bd
000002d0: 1255 7fbe ee24 a6be 3472 b23d b758 dcbe
000002e0: 436f 633e e09f 7abe d541 72be 4ad2 84be
000002f0: 38b3 ccbd 71e6 21be 03ab 08bf 3ade 0ebe
00000300: 1790 24be 7682 e83c 2327 93be 8d44 e13e
00000310: 9cb6 983c 4323 80be 735d 92be 8523 673e
00000320: 8d62 68be d68e d53c 6fd0 3a3e c190 b6be
00000330: cc54 4b3f 4ace 8dbe fcc7 e43e cb42 8cbe
00000340: b684 6c3e 0764 593e 7ff2 163e 8ade 1dbe
00000350: 51f4 7cbe 484c 063f 2e75 a6be e5f1 3a3c
00000360: a83e 6fbe cbf9 99bd 251a 80be fde3 bbbe
00000370: 9d56 acbc 53f9 70be 4607 b43d 8f04 6a3e
00000380: 2d7b a13e 0727 0fbe 134a 583d 99ba db3d
00000390: 49c9 c0bd 52f1 1d3e 4f64 153e d27d 89bc
000003a0: 9919 9d3e 50fe 603e 4fd6 61be 2c2b 7bbe
000003b0: a713 6abe 2ce6 1b3e 5045 2ebf 7b4e 433e
000003c0: a831 60bd 8f52 773e bc3f 8b3e 0b99 ccbd
000003d0: f8ff 57be 2b28 2dbc 85be 6abc e346 953d
000003e0: b64c 10bd c347 dcbe d58e 303e f8bb db3c
000003f0: 8efe 22bf 5b95 543d 2c8f c33c 472d a6bc
0.23766749 0.4392356 1.26176 0.12330158 0.38781512 0.04769668 -0.34038067 0.03243445
0.01999271 -0.28956732 -0.006731691 0.61135095 -0.22234221 -0.012095545 -0.12694414 -0.025715081
-0.21240278 -0.22018789 0.13529117 0.44170877 1.3594371 0.025297076 -0.51270896 -0.13408214
-0.36500698 -0.12652415 0.25209337 -0.09938403 -0.23149413 0.12688954 0.21120486 -0.17954178
-0.044890955 -0.18310124 -0.022099253 -0.109555565 -0.31439167 -0.115621366 0.30504698 -0.15762402
-0.00081061193 -0.17641814 -0.10789223 -0.050773688 -0.040625654 0.041020215 -0.05486782 -0.18436766
-0.1341156 0.18379027 -0.014345646 0.0049192174 0.17336142 0.10865946 -0.15507336 -0.025012298
-0.5998718 -0.04384249 -0.6043521 -0.21146524 -0.014096942 0.20437731 0.7763653 0.25647083
-0.102999695 0.339975 0.21211785 0.09797205 -0.019699302 -0.22004643 -0.12051269 0.13089988
-0.45140916 0.3911135 -0.4394469 -0.85736656 0.15837564 -0.34723553 -0.07158469 0.07281341
-0.038308628 -0.057117615 0.2567108 0.4022671 0.2750205 0.1894332 0.15045759 0.18327087
0.21835952 0.22664577 -0.4763342 0.99007976 0.2437788 0.26719946 0.19895004 -0.113024816
-0.37319076 0.25900316 0.047151588 0.0007611336 0.11185039 0.088197425 0.20554583 0.12084792
0.07924279 0.13421328 0.19957663 0.16570859 -0.093387835 0.19822732 0.059442326 0.2590742
0.28372696 0.28066263 0.16338268 0.2299091 0.09537347 -0.021709315 0.024331147 0.079556495
-0.025833193 -0.07599056 0.06643163 -0.11043668 0.12080464 -0.20111898 0.35924545 0.14168927
0.12920444 0.47768933 0.44244945 -0.14867413 0.086885236 0.18606788 0.17229995 0.020631835
0.05267758 0.06478757 0.05126235 0.19049771 0.21350354 0.021849265 0.0743707 0.119834855
0.026753552 -0.070862345 0.6600875 0.51405996 -0.53762096 -0.13134405 0.019710943 0.09766276
-0.13580817 -0.3500894 -0.17929804 0.21510012 -0.39283657 -0.15665138 -0.16319886 0.12125917
-0.16016047 0.102555074 0.018899864 -0.34637925 0.86461234 0.14798965 0.36866355 -0.18359151
0.6458919 0.43677086 0.06897552 -0.3378019 0.14258404 0.23076682 0.20771293 -0.16944818
-0.2515518 0.39067334 -0.28377175 -0.050928228 -0.24934795 -0.3245005 0.08713189 -0.43036434
0.22210412 -0.2447505 -0.23657925 -0.25941688 -0.09995121 -0.15810563 -0.53385943 -0.1395196
-0.16070591 0.028382521 -0.28740796 0.43997613 0.018641762 -0.25026903 -0.2858692 0.22572143
-0.22693844 0.026069086 0.18243574 -0.35657313 0.79426265 -0.2769645 0.44683826 -0.2739471
0.230975 0.21229564 0.14740942 -0.15416923 -0.24702574 0.52460146 -0.32511276 0.011410211
-0.23363745 -0.07518347 -0.25019947 -0.3669738 -0.021037394 -0.2353261 0.0879045 0.22853301
0.31539288 -0.13979732 0.052805018 0.1072895 -0.09413392 0.15424088 0.14589046 -0.016783629
0.30683592 0.21972013 -0.22054408 -0.24528188 -0.2285906 0.15224522 -0.6807451 0.19072907
-0.054734856 0.24152587 0.27197063 -0.09990128 -0.21093738 -0.010568659 -0.01432765 0.07288911
-0.035229407 -0.430235 0.17241986 0.026823029 -0.6366967 0.05190025 0.02387198 -0.020285262

conv.2.bias f4 [16]
00000000: 4355 cdbd 522a 053d e265 61be 7148 313e
00000010: bcc2 fabd efce 5dbe f62d b1bd 2e61 8e3d
00000020: b02d ab3d 50bd 4dbc c441 e43d 8aeb 983d
00000030: fcf9 3bbd d200 ddbd 6c60 b1bd c4e1 5abe
-0.10026028 0.032511063 -0.22011521 0.1731279 -0.12244174 -0.2166097 -0.086513445 0.06952129
0.083583236 -0.012557343 0.11145356 0.074668005 -0.0458927 -0.10791172 -0.08660969 -0.21375185

conv.4.weight f4 [16, 16, 3, 3]
00000000: d1dc 10be 98db 49bd b43d 27be 7912 a3bd
00000010: fc4b 1abe 8825 bebd ec12 c1bc acd9 6abd
00000020: c04b bcbc b03d c93b b6f5 4cbd e2f3 293d
00000030: 00fb 1dbc 809a 6f3a 270a 81bd 294b adbd
00000040: b6a7 dabc fb21 98bd b2d6 48bd 742b 1dbe
00000050: 481a 77bd 3edd febd 98a3 c7bc 8aba 0abd
00000060: 26a9 05be b17e 1cbe 0691 08be 0c36 873c
00000070: 34f4 953c f03b b4bc e032 b3bc 51e0 813d
00000080: 806f 673a c0e1 d3bc 400e 1c3d a012 7dbd
00000090: e74b d4bd c8e7 5cbd 26cf 7abd 6d54 0bbe
000000a0: 272e a23d 50b5 98bc 9c1a 4cbd 6a99 3a3d
000000b0: c24c 503d 8fb5 9ebd e387 aa3d 3e55 45bd
000000c0: 7b53 72bd 92c9 8cbd 3093 0dbd d82c 203d
000000d0: 2ed0 64bd 4b21 32bd 6619 15bd aea5 acbd
000000e0: a86c a0bc 58d7 2abe 7775 09be 38ed 11be
000000f0: d98d a73d 09c6 b3bd 9616 07be 9654 7ebd
00000100: a190 ebbd 3d19 09be 549f 2cbe 805d 36be
00000110: 3025 fcbc 1b42 d3bd 9f7b a7bd 90bc d7bc
00000120: e24a dcbd a458 35be e437 8bbc 740e 06be
00000130: da88 9cbd 6a99 0fbd 2c17 32be be72 cebd
00000140: 3ce7 32be b10e f8bd 50ca d13c b452 07be
00000150: 6603 f2bc 8818 d0bc 1611 2dbd 5f38 37be
00000160: 4f3b 89bd cc50 eabd 4aed 413d 227c 80bd
00000170: 184d f5bd f33c 34bd 9816 10bd 00b4 b0b8
00000180: 6088 60bc 3b92 5bbd 904e 9c3c be5e e3bd
00000190: 23a7 97bd e08c 23bd 28b7 75bd 97b4 8bbd
000001a0: 5ff8 9dbd f82e eabd e6d0 8bbd 589c 6cbc
000001b0: 34f6 abbd 52a6 65bd f072 46bd 37d1 e8bd
000001c0: 7083 34bd 5ca4 28be b615 19bd a4bb d2bd
000001d0: 24be 91bd 40cb a83b fda6 913d 0c86 c3bc
000001e0: 101a f5bb b60f 7dbd 1a20 93bd 1841 01be
000001f0: b065 8f3c 2042 243b 544b e7bd b794 803d
00000200: dc64 14be 4fa6 82bd f0f3 fcbc b609 d1bc
00000210: 7068 1abd f8e2 393c 42e9 8fbd a2e1 93bd
00000220: 8a84 4c3d a09c bbbc 0ef5 193d bce3 09bd
00000230: 1abf 28be 6e18 b9bd 0e4e 1fbd 4b0a 9e3d
00000240: a96d aabd 294e 5d3e ec3b 1a3f 433c 643d
00000250: b63c ff3e cfd8 a13d e8bc 3dbe 51e4 0d3e
00000260: 6a0e dc3c 9287 0e3c 3b04 d5bd 5e7b 97bd
00000270: 34d9 1abe 74c8 47be 9d71 1ebe d12f b1bd
00000280: 7380 18be 19fb 28be 3542 ab3d 2eaf c23e
00000290: 9020 113f 0a2c 53bd b6cd 053f a29d 103e
000002a0: 5de5 92be 59b0 60bd 385b 6c3e 9b04 4ebd
000002b0: 85a7 15be 7013 e2bc ff66 b7bd aa9a 02be
000002c0: 00ca d8bc 1b54 4bbd 8d0b 11be 4ac8 3fbe
000002d0: 7830 123d 38e2 273d 2d6c 333e 6ed6 983d
000002e0: 008e 863b 042c 923d bdd9 f13d 463b c4bc
000002f0: 38a0 743c 2334 6dbd 3818 593c 61bc 213e
00000300: d85d b9bd d3af 60bd 5c03 bc3c 3314 97bd
00000310: 50dc e43c 028c 4f3d 2405 ec3c 12ae 423d
00000320: 6833 863d a3a5 8e3d 1715 ad3c 5b8e 173e
00000330: 9af0 05bd bb33 613d b343 8d3d 51f9 623d
00000340: 2187 a0bd 208c 42be 1501 8dbc 93a2 04be
00000350: 2d64 bdbd 2adb bdbd 6b90 e1bd 6c7f 48bc
00000360: 300d 3a3e da92 76bd 2817 43be 3a74 01be
00000370: d0af 3abd ffb8 3ebd d2ea 75bd 43ac 16bd
00000380: 4c9c 373e a68c d9bb 7dff 41be 1cd4 86be
00000390: 2028 b4bd a624 60bc abc6 dbbd 599a 21bd
000003a0: fa11 69be a224 99bd 60dd 9db9 2ce2 12be
000003b0: 55c6 71bd 026c 40be d47d 6dbe 67c3 08be
000003c0: 27dd 08be 1515 dbbd f894 67be 12f7 2d3d
000003d0: 3801 c8bd 389c b03d a712 5ebe 611a 2abe
000003e0: fe17 47be 62bc bfbd 2338 57be e5ad 5ebe
000003f0: ea5c 82bd 5813 1b3e 54f0 a4bd 0000 d93c
-0.14146735 -0.049281687 -0.16332132 -0.07962508 -0.15068048 -0.09284502 -0.023568593 -0.057336494
-0.02298534 0.006141387 -0.050039016 0.04149235 -0.009642363 0.0009140149 -0.063007645 -0.08461601
-0.026691299 -0.07428356 -0.049032874 -0.15348607 -0.060327798 -0.12444542 -0.02437 -0.033869304
-0.13052806 -0.15282704 -0.13336572 0.016505264 0.018304922 -0.022001237 -0.021874845 0.06341613
0.00088285655 -0.025864482 0.038099527 -0.06178534 -0.1036604 -0.05393198 -0.06123271 -0.13606425
0.07918959 -0.018641144 -0.049830064 0.045556463 0.050854452 -0.07749473 0.083266996 -0.048176996
-0.059161644 -0.06874384 -0.034564197 0.039105266 -0.055862598 -0.043488782 -0.036401175 -0.084300384
-0.019583061 -0.1668371 -0.13423716 -0.14250648 0.08181352 -0.087780066 -0.1319221 -0.062092386
-0.11502195 -0.13388534 -0.16857654 -0.17809105 -0.030779451 -0.10315343 -0.08177876 -0.02633503
-0.1075647 -0.17709595 -0.016994424 -0.13091451 -0.0764329 -0.035058416 -0.17391652 -0.10080479
-0.17471021 -0.12112177 0.025609165 -0.13215142 -0.029542636 -0.025402322 -0.042252623 -0.17892598
-0.06700765 -0.11441192 0.047345437 -0.062736765 -0.11977595 -0.04400344 -0.035177797 -8.4258616e-05
-0.013704389 -0.053606253 0.01908043 -0.11102055 -0.07404926 -0.03992927 -0.059989125 -0.06821554
-0.07713389 -0.1143474 -0.068269536 -0.014441572 -0.08396569 -0.05606682 -0.048449457 -0.113680296
-0.04407066 -0.16468948 -0.03737422 -0.10289696 -0.071163446 0.0051511824 0.071119286 -0.02386763
-0.0074799135 -0.06178256 -0.07183857 -0.12622488 0.017504543 0.0025063828 -0.112936646 0.06278365
-0.144916 -0.06379377 -0.030878037 -0.025517326 -0.037697256 0.0113456175 -0.07026912 -0.072207704
0.049931087 -0.022901833 0.037587218 -0.03366445 -0.1647915 -0.09037863 -0.038892798 0.07716807
-0.08321697 0.21611847 0.60247684 0.055721533 0.49851006 0.07902681 -0.18529093 0.13856627
0.026862342 0.008699315 -0.104011975 -0.07396577 -0.15121919 -0.1951006 -0.15473028 -0.086516984
-0.1489275 -0.16502036 0.08362237 0.38024276 0.5669031 -0.05155567 0.52267015 0.14122632
-0.28690615 -0.05485568 0.23081672 -0.05029736 -0.14614685 -0.02759716 -0.08955192 -0.12754312
-0.026463509 -0.049640756 -0.14164563 -0.18728748 0.035690755 0.040987223 0.17521735 0.07462774
0.004106283 0.071373016 0.118091084 -0.023954045 0.014930777 -0.05791105 0.013250403 0.15794517
-0.090511024 -0.05485518 0.02295082 -0.073768996 0.027937084 0.05067063 0.028811045 0.047529288
0.06552774 0.069651864 0.02112822 0.14800398 -0.03270016 0.054980975 0.06897678 0.055413548
-0.07838274 -0.18998766 -0.01721243 -0.12952642 -0.09247623 -0.09270318 -0.11013874 -0.012237411
0.18169093 -0.060198642 -0.19051802 -0.12641993 -0.045577824 -0.046563145 -0.060038395 -0.036785375
0.17930716 -0.006639081 -0.18945117 -0.26333702 -0.08796716 -0.013680613 -0.10731252 -0.039453838
-0.22760764 -0.0747769 -0.0003011031 -0.1434409 -0.059027035 -0.18791202 -0.23192531 -0.1335579
-0.13365613 -0.106973805 -0.22615421 0.042471953 -0.097658575 0.08623546 -0.21686803 -0.16611625
-0.19442746 -0.09362103 -0.21017508 -0.21746023 -0.06365378 0.15144098 -0.080536515 0.026489258

conv.4.bias f4 [16]
00000000: 6299 d2bd 6cfa b23c 4194 f7bd 7018 9bbb
00000010: 97a0 e93c 7cce 6dbd 29d7 683e 9e32 8a3e
00000020: 0cdf 06be 7498 38be 934d 3e3e e4f2 29be
00000030: be41 19be 1aac 28be 5b3b b23e ffb2 a2be
-0.10283162 0.021847926 -0.12088824 -0.004733138 0.028518958 -0.058058247 0.22738327 0.26991743
-0.13171023 -0.18026906 0.1858428 -0.16596562 -0.14966485 -0.16471902 0.3481091 -0.31777188

linear.weight f4 [6, 16]
00000000: f8ca 4f3e a44e d3be 28e0 9ebd 89aa f5be
00000010: 842c a5be 300f 87bc 92e5 07bf a51f bdbe
00000020: ccd1 dd3d 98ec 003d 84b4 22bf a4d6 6fbe
00000030: e80c 713e 809f 273c 2a35 54be 9f78 523f
00000040: 4078 c23a c8ee a3bd 148e 19bd eb39 03bf
00000050: aa1b a6be 235e c7bd d6f5 d9bd dc28 a6be
00000060: 9071 5c3d 16cd 48be 2142 01be ca21 983d
00000070: 381b 4dbc 8fe8 c4bd f58a b5bd 91b7 b4be
00000080: 5c52 e9bd 03e3 82be 3e98 4abe c0a0 acbe
00000090: f6d5 8c3b 28b0 e53d 3e05 83bd 9664 b2bd
000000a0: b0ae 6dbe 40d5 99bc 6d57 07bd 3a49 063e
000000b0: a60a 66be f8b8 333e a0d2 d6be d7e3 1bbf
000000c0: 5e7f 0e3e df93 82be c095 01bd d7eb c1be
000000d0: 0a5d 09bf c8da 13bd 14eb d6bd 971a dfbe
000000e0: 8039 fd3c 402e 2dbd a67e 133e 629b 4bbe
000000f0: 8d94 cbbd 9417 dcbd fd6c fabe 8d23 9abe
00000100: 00eb d73b 9515 63be fabc 08be a335 883e
00000110: 1af4 783e acad 0bbe 3499 04bf cd08 bcbe
00000120: 94ed 523e 36e1 5ebe a54f cebe 88da 153e
00000130: 1e7d 563d 804f ebbd b90d a4bd c06b 173f
00000140: b4eb 103e 403b 44be 7908 8fbd ee39 7ebd
00000150: 0880 bd3e 80b2 7cbe 6491 d93d 96d5 6dbe
00000160: 75a8 8b3d e0f9 ccbc 98eb 5bbe d0c9 8d3d
00000170: ac2e 79be 7858 803d 73a0 a3be 4965 473e
0.2029227 -0.41270936 -0.07757598 -0.4798167 -0.32260525 -0.016486734 -0.5308467 -0.36938205
0.10831031 0.031475633 -0.63556695 -0.23421723 0.2354008 0.010230899 -0.20723405 0.82215303
0.0014836863 -0.08004528 -0.037489012 -0.5126025 -0.3244298 -0.09734752 -0.106425926 -0.32453048
0.05381924 -0.19609484 -0.12622882 0.0742832 -0.0125186965 -0.096146695 -0.088643946 -0.352963
-0.11392662 -0.2556382 -0.19784638 -0.33716393 0.004297967 0.1121524 -0.06397484 -0.087105915
-0.23211169 -0.018778443 -0.03304236 0.13113871 -0.22465 0.17551029 -0.4195757 -0.6089453
0.13915774 -0.25503442 -0.031636953 -0.37875244 -0.5365759 -0.036097318 -0.10494056 -0.43574974
0.030911207 -0.042280436 0.14403781 -0.19883493 -0.09940443 -0.10746685 -0.48911276 -0.30105248
0.0065892935 -0.22176202 -0.13353339 0.26603422 0.24311867 -0.1364047 -0.5179627 -0.36725464
0.20598441 -0.21765599 -0.4029514 0.14634144 0.052365415 -0.11489773 -0.0801043 0.5914879
0.14152414 -0.19163227 -0.06984038 -0.062066965 0.37011743 -0.24677467 0.10623434 -0.23226008
0.0681924 -0.025021493 -0.2147659 0.06923258 -0.2433421 0.06266874 -0.3195835 0.19472231

linear.bias f4 [6]
00000000: 05e3 d1be bca8 33bc 31cc 9dbe eec5 04bd
00000010: 9e44 3bbe 06ac 3bbe
-0.40993515 -0.010965522 -0.30819848 -0.032415323 -0.18287894 -0.1832734
